{"format": "graph-model", "generatedBy": "2.12.0", "convertedBy": "TensorFlow.js Converter v3.18.0", "signature": {"inputs": {"images": {"name": "images:0", "dtype": "DT_FLOAT", "tensorShape": {"dim": [{"size": "1"}, {"size": "3"}, {"size": "416"}, {"size": "416"}]}}}, "outputs": {"output0": {"name": "Identity:0", "dtype": "DT_FLOAT", "tensorShape": {"dim": [{"size": "1"}, {"size": "10"}, {"size": "3549"}]}}}}, "modelTopology": {"node": [{"name": "ConstantFolding/PartitionedCall/onnx_tf_prefix_/model.22/Div_1_recip", "op": "Const", "attr": {"value": {"tensor": {"dtype": "DT_FLOAT", "tensorShape": {}}}, "dtype": {"type": "DT_FLOAT"}}}, {"name": "unknown_140", "op": "Const", "attr": {"dtype": {"type": "DT_FLOAT"}, "value": {"tensor": {"dtype": "DT_FLOAT", "tensorShape": {"dim": [{"size": "1"}, {"size": "2"}, {"size": "3549"}]}}}}}, {"name": "PartitionedCall/SelectV2_5", "op": "Const", "attr": {"value": {"tensor": {"dtype": "DT_INT64", "tensorShape": {"dim": [{"size": "1"}]}}}, "dtype": {"type": "DT_INT64"}}}, {"name": "PartitionedCall/zeros_6", "op": "Const", "attr": {"value": {"tensor": {"dtype": "DT_INT64", "tensorShape": {}}}, "dtype": {"type": "DT_INT64"}}}, {"name": "PartitionedCall/Const_49", "op": "Const", "attr": {"value": {"tensor": {"dtype": "DT_INT64", "tensorShape": {}}}, "dtype": {"type": "DT_INT64"}}}, {"name": "PartitionedCall/Shape_11", "op": "Const", "attr": {"value": {"tensor": {"dtype": "DT_INT64", "tensorShape": {"dim": [{"size": "3"}]}}}, "dtype": {"type": "DT_INT64"}}}, {"name": "PartitionedCall/ExpandDims_1", "op": "Const", "attr": {"dtype": {"type": "DT_INT64"}, "value": {"tensor": {"dtype": "DT_INT64", "tensorShape": {"dim": [{"size": "1"}, {"size": "1"}]}}}}}, {"name": "PartitionedCall/Cast_12", "op": "Const", "attr": {"value": {"tensor": {"dtype": "DT_INT64", "tensorShape": {"dim": [{"size": "1"}]}}}, "dtype": {"type": "DT_INT64"}}}, {"name": "PartitionedCall/SelectV2_6", "op": "Const", "attr": {"dtype": {"type": "DT_INT64"}, "value": {"tensor": {"dtype": "DT_INT64", "tensorShape": {"dim": [{"size": "1"}]}}}}}, {"name": "PartitionedCall/Const_48", "op": "Const", "attr": {"dtype": {"type": "DT_INT64"}, "value": {"tensor": {"dtype": "DT_INT64", "tensorShape": {}}}}}, {"name": "PartitionedCall/ones_1", "op": "Const", "attr": {"value": {"tensor": {"dtype": "DT_INT64", "tensorShape": {"dim": [{"size": "3"}]}}}, "dtype": {"type": "DT_INT64"}}}, {"name": "unknown_139", "op": "Const", "attr": {"dtype": {"type": "DT_FLOAT"}, "value": {"tensor": {"dtype": "DT_FLOAT", "tensorShape": {"dim": [{"size": "1"}, {"size": "2"}, {"size": "3549"}]}}}}}, {"name": "unknown_132", "op": "Const", "attr": {"value": {"tensor": {"dtype": "DT_INT64", "tensorShape": {"dim": [{"size": "4"}]}}}, "dtype": {"type": "DT_INT64"}}}, {"name": "PartitionedCall/Where_3", "op": "Const", "attr": {"value": {"tensor": {"dtype": "DT_INT64", "tensorShape": {"dim": [{}, {"size": "1"}]}}}, "dtype": {"type": "DT_INT64"}}}, {"name": "PartitionedCall/Cast_7", "op": "Const", "attr": {"value": {"tensor": {"dtype": "DT_INT64", "tensorShape": {"dim": [{"size": "1"}]}}}, "dtype": {"type": "DT_INT64"}}}, {"name": "PartitionedCall/GatherV2_3", "op": "Const", "attr": {"dtype": {"type": "DT_INT64"}, "value": {"tensor": {"dtype": "DT_INT64", "tensorShape": {"dim": [{}]}}}}}, {"name": "PartitionedCall/zeros_3", "op": "Const", "attr": {"dtype": {"type": "DT_INT64"}, "value": {"tensor": {"dtype": "DT_INT64", "tensorShape": {}}}}}, {"name": "PartitionedCall/onnx_tf_prefix_/model.22/dfl/Transpose/perm", "op": "Const", "attr": {"dtype": {"type": "DT_INT32"}, "value": {"tensor": {"dtype": "DT_INT32", "tensorShape": {"dim": [{"size": "4"}]}}}}}, {"name": "PartitionedCall/concat_63", "op": "Const", "attr": {"value": {"tensor": {"dtype": "DT_INT32", "tensorShape": {"dim": [{"size": "4"}]}}}, "dtype": {"type": "DT_INT32"}}}, {"name": "PartitionedCall/concat_64", "op": "Const", "attr": {"dtype": {"type": "DT_INT32"}, "value": {"tensor": {"dtype": "DT_INT32", "tensorShape": {"dim": [{"size": "4"}]}}}}}, {"name": "PartitionedCall/transpose_201/perm", "op": "Const", "attr": {"value": {"tensor": {"dtype": "DT_INT32", "tensorShape": {"dim": [{"size": "4"}]}}}, "dtype": {"type": "DT_INT32"}}}, {"name": "PartitionedCall/split_63", "op": "Const", "attr": {"dtype": {"type": "DT_FLOAT"}, "value": {"tensor": {"dtype": "DT_FLOAT", "tensorShape": {"dim": [{"size": "1"}, {"size": "1"}, {"size": "16"}, {"size": "1"}]}}}}}, {"name": "PartitionedCall/transpose_202/perm", "op": "Const", "attr": {"dtype": {"type": "DT_INT32"}, "value": {"tensor": {"dtype": "DT_INT32", "tensorShape": {"dim": [{"size": "4"}]}}}}}, {"name": "unknown_134", "op": "Const", "attr": {"dtype": {"type": "DT_INT64"}, "value": {"tensor": {"dtype": "DT_INT64", "tensorShape": {"dim": [{"size": "3"}]}}}}}, {"name": "PartitionedCall/Where_4", "op": "Const", "attr": {"value": {"tensor": {"dtype": "DT_INT64", "tensorShape": {"dim": [{}, {"size": "1"}]}}}, "dtype": {"type": "DT_INT64"}}}, {"name": "PartitionedCall/Cast_8", "op": "Const", "attr": {"dtype": {"type": "DT_INT64"}, "value": {"tensor": {"dtype": "DT_INT64", "tensorShape": {"dim": [{"size": "1"}]}}}}}, {"name": "PartitionedCall/GatherV2_4", "op": "Const", "attr": {"value": {"tensor": {"dtype": "DT_INT64", "tensorShape": {"dim": [{}]}}}, "dtype": {"type": "DT_INT64"}}}, {"name": "PartitionedCall/zeros_4", "op": "Const", "attr": {"value": {"tensor": {"dtype": "DT_INT64", "tensorShape": {}}}, "dtype": {"type": "DT_INT64"}}}, {"name": "PartitionedCall/SelectV2_1", "op": "Const", "attr": {"dtype": {"type": "DT_INT64"}, "value": {"tensor": {"dtype": "DT_INT64", "tensorShape": {"dim": [{"size": "1"}]}}}}}, {"name": "PartitionedCall/zeros_5", "op": "Const", "attr": {"value": {"tensor": {"dtype": "DT_INT64", "tensorShape": {}}}, "dtype": {"type": "DT_INT64"}}}, {"name": "PartitionedCall/Const_47", "op": "Const", "attr": {"value": {"tensor": {"dtype": "DT_INT64", "tensorShape": {}}}, "dtype": {"type": "DT_INT64"}}}, {"name": "PartitionedCall/Shape_10", "op": "Const", "attr": {"value": {"tensor": {"dtype": "DT_INT64", "tensorShape": {"dim": [{"size": "3"}]}}}, "dtype": {"type": "DT_INT64"}}}, {"name": "PartitionedCall/ExpandDims", "op": "Const", "attr": {"value": {"tensor": {"dtype": "DT_INT64", "tensorShape": {"dim": [{"size": "1"}, {"size": "1"}]}}}, "dtype": {"type": "DT_INT64"}}}, {"name": "PartitionedCall/Cast_10", "op": "Const", "attr": {"value": {"tensor": {"dtype": "DT_INT64", "tensorShape": {"dim": [{"size": "1"}]}}}, "dtype": {"type": "DT_INT64"}}}, {"name": "PartitionedCall/SelectV2_2", "op": "Const", "attr": {"dtype": {"type": "DT_INT64"}, "value": {"tensor": {"dtype": "DT_INT64", "tensorShape": {"dim": [{"size": "1"}]}}}}}, {"name": "PartitionedCall/Const_46", "op": "Const", "attr": {"value": {"tensor": {"dtype": "DT_INT64", "tensorShape": {}}}, "dtype": {"type": "DT_INT64"}}}, {"name": "PartitionedCall/ones", "op": "Const", "attr": {"value": {"tensor": {"dtype": "DT_INT64", "tensorShape": {"dim": [{"size": "3"}]}}}, "dtype": {"type": "DT_INT64"}}}, {"name": "PartitionedCall/onnx_tf_prefix_/model.22/Concat_4/axis", "op": "Const", "attr": {"dtype": {"type": "DT_INT32"}, "value": {"tensor": {"dtype": "DT_INT32", "tensorShape": {}}}}}, {"name": "unknown_142", "op": "Const", "attr": {"dtype": {"type": "DT_FLOAT"}, "value": {"tensor": {"dtype": "DT_FLOAT", "tensorShape": {"dim": [{"size": "1"}, {"size": "3549"}]}}}}}, {"name": "PartitionedCall/Const_24", "op": "Const", "attr": {"value": {"tensor": {"dtype": "DT_INT32", "tensorShape": {"dim": [{"size": "4"}, {"size": "2"}]}}}, "dtype": {"type": "DT_INT32"}}}, {"name": "PartitionedCall/transpose_119/perm", "op": "Const", "attr": {"value": {"tensor": {"dtype": "DT_INT32", "tensorShape": {"dim": [{"size": "4"}]}}}, "dtype": {"type": "DT_INT32"}}}, {"name": "PartitionedCall/split_36", "op": "Const", "attr": {"value": {"tensor": {"dtype": "DT_FLOAT", "tensorShape": {"dim": [{"size": "3"}, {"size": "3"}, {"size": "64"}, {"size": "64"}]}}}, "dtype": {"type": "DT_FLOAT"}}}, {"name": "unknown_77", "op": "Const", "attr": {"value": {"tensor": {"dtype": "DT_FLOAT", "tensorShape": {"dim": [{"size": "64"}]}}}, "dtype": {"type": "DT_FLOAT"}}}, {"name": "PartitionedCall/transpose_120/perm", "op": "Const", "attr": {"dtype": {"type": "DT_INT32"}, "value": {"tensor": {"dtype": "DT_INT32", "tensorShape": {"dim": [{"size": "4"}]}}}}}, {"name": "PartitionedCall/Const_26", "op": "Const", "attr": {"value": {"tensor": {"dtype": "DT_INT32", "tensorShape": {"dim": [{"size": "4"}, {"size": "2"}]}}}, "dtype": {"type": "DT_INT32"}}}, {"name": "PartitionedCall/transpose_125/perm", "op": "Const", "attr": {"value": {"tensor": {"dtype": "DT_INT32", "tensorShape": {"dim": [{"size": "4"}]}}}, "dtype": {"type": "DT_INT32"}}}, {"name": "PartitionedCall/split_38", "op": "Const", "attr": {"dtype": {"type": "DT_FLOAT"}, "value": {"tensor": {"dtype": "DT_FLOAT", "tensorShape": {"dim": [{"size": "3"}, {"size": "3"}, {"size": "64"}, {"size": "64"}]}}}}}, {"name": "unknown_81", "op": "Const", "attr": {"value": {"tensor": {"dtype": "DT_FLOAT", "tensorShape": {"dim": [{"size": "64"}]}}}, "dtype": {"type": "DT_FLOAT"}}}, {"name": "PartitionedCall/transpose_126/perm", "op": "Const", "attr": {"value": {"tensor": {"dtype": "DT_INT32", "tensorShape": {"dim": [{"size": "4"}]}}}, "dtype": {"type": "DT_INT32"}}}, {"name": "PartitionedCall/transpose_134/perm", "op": "Const", "attr": {"value": {"tensor": {"dtype": "DT_INT32", "tensorShape": {"dim": [{"size": "4"}]}}}, "dtype": {"type": "DT_INT32"}}}, {"name": "PartitionedCall/split_41", "op": "Const", "attr": {"value": {"tensor": {"dtype": "DT_FLOAT", "tensorShape": {"dim": [{"size": "1"}, {"size": "1"}, {"size": "64"}, {"size": "64"}]}}}, "dtype": {"type": "DT_FLOAT"}}}, {"name": "unknown_87", "op": "Const", "attr": {"value": {"tensor": {"dtype": "DT_FLOAT", "tensorShape": {"dim": [{"size": "64"}]}}}, "dtype": {"type": "DT_FLOAT"}}}, {"name": "PartitionedCall/transpose_135/perm", "op": "Const", "attr": {"value": {"tensor": {"dtype": "DT_INT32", "tensorShape": {"dim": [{"size": "4"}]}}}, "dtype": {"type": "DT_INT32"}}}, {"name": "PartitionedCall/Const_25", "op": "Const", "attr": {"value": {"tensor": {"dtype": "DT_INT32", "tensorShape": {"dim": [{"size": "4"}, {"size": "2"}]}}}, "dtype": {"type": "DT_INT32"}}}, {"name": "PartitionedCall/transpose_122/perm", "op": "Const", "attr": {"value": {"tensor": {"dtype": "DT_INT32", "tensorShape": {"dim": [{"size": "4"}]}}}, "dtype": {"type": "DT_INT32"}}}, {"name": "PartitionedCall/split_37", "op": "Const", "attr": {"dtype": {"type": "DT_FLOAT"}, "value": {"tensor": {"dtype": "DT_FLOAT", "tensorShape": {"dim": [{"size": "3"}, {"size": "3"}, {"size": "64"}, {"size": "64"}]}}}}}, {"name": "unknown_79", "op": "Const", "attr": {"value": {"tensor": {"dtype": "DT_FLOAT", "tensorShape": {"dim": [{"size": "64"}]}}}, "dtype": {"type": "DT_FLOAT"}}}, {"name": "PartitionedCall/transpose_123/perm", "op": "Const", "attr": {"dtype": {"type": "DT_INT32"}, "value": {"tensor": {"dtype": "DT_INT32", "tensorShape": {"dim": [{"size": "4"}]}}}}}, {"name": "PartitionedCall/Const_27", "op": "Const", "attr": {"value": {"tensor": {"dtype": "DT_INT32", "tensorShape": {"dim": [{"size": "4"}, {"size": "2"}]}}}, "dtype": {"type": "DT_INT32"}}}, {"name": "PartitionedCall/transpose_128/perm", "op": "Const", "attr": {"value": {"tensor": {"dtype": "DT_INT32", "tensorShape": {"dim": [{"size": "4"}]}}}, "dtype": {"type": "DT_INT32"}}}, {"name": "PartitionedCall/split_39", "op": "Const", "attr": {"value": {"tensor": {"dtype": "DT_FLOAT", "tensorShape": {"dim": [{"size": "3"}, {"size": "3"}, {"size": "64"}, {"size": "64"}]}}}, "dtype": {"type": "DT_FLOAT"}}}, {"name": "unknown_83", "op": "Const", "attr": {"value": {"tensor": {"dtype": "DT_FLOAT", "tensorShape": {"dim": [{"size": "64"}]}}}, "dtype": {"type": "DT_FLOAT"}}}, {"name": "PartitionedCall/transpose_129/perm", "op": "Const", "attr": {"dtype": {"type": "DT_INT32"}, "value": {"tensor": {"dtype": "DT_INT32", "tensorShape": {"dim": [{"size": "4"}]}}}}}, {"name": "PartitionedCall/transpose_137/perm", "op": "Const", "attr": {"value": {"tensor": {"dtype": "DT_INT32", "tensorShape": {"dim": [{"size": "4"}]}}}, "dtype": {"type": "DT_INT32"}}}, {"name": "PartitionedCall/split_42", "op": "Const", "attr": {"value": {"tensor": {"dtype": "DT_FLOAT", "tensorShape": {"dim": [{"size": "1"}, {"size": "1"}, {"size": "64"}, {"size": "6"}]}}}, "dtype": {"type": "DT_FLOAT"}}}, {"name": "unknown_89", "op": "Const", "attr": {"dtype": {"type": "DT_FLOAT"}, "value": {"tensor": {"dtype": "DT_FLOAT", "tensorShape": {"dim": [{"size": "6"}]}}}}}, {"name": "PartitionedCall/transpose_138/perm", "op": "Const", "attr": {"dtype": {"type": "DT_INT32"}, "value": {"tensor": {"dtype": "DT_INT32", "tensorShape": {"dim": [{"size": "4"}]}}}}}, {"name": "PartitionedCall/onnx_tf_prefix_/model.22/Concat/axis", "op": "Const", "attr": {"dtype": {"type": "DT_INT32"}, "value": {"tensor": {"dtype": "DT_INT32", "tensorShape": {}}}}}, {"name": "PartitionedCall/Where", "op": "Const", "attr": {"dtype": {"type": "DT_INT64"}, "value": {"tensor": {"dtype": "DT_INT64", "tensorShape": {"dim": [{}, {"size": "1"}]}}}}}, {"name": "PartitionedCall/Cast_4", "op": "Const", "attr": {"dtype": {"type": "DT_INT64"}, "value": {"tensor": {"dtype": "DT_INT64", "tensorShape": {"dim": [{"size": "1"}]}}}}}, {"name": "PartitionedCall/GatherV2", "op": "Const", "attr": {"value": {"tensor": {"dtype": "DT_INT64", "tensorShape": {"dim": [{}]}}}, "dtype": {"type": "DT_INT64"}}}, {"name": "PartitionedCall/zeros", "op": "Const", "attr": {"dtype": {"type": "DT_INT64"}, "value": {"tensor": {"dtype": "DT_INT64", "tensorShape": {}}}}}, {"name": "PartitionedCall/Const_32", "op": "Const", "attr": {"value": {"tensor": {"dtype": "DT_INT32", "tensorShape": {"dim": [{"size": "4"}, {"size": "2"}]}}}, "dtype": {"type": "DT_INT32"}}}, {"name": "PartitionedCall/transpose_152/perm", "op": "Const", "attr": {"value": {"tensor": {"dtype": "DT_INT32", "tensorShape": {"dim": [{"size": "4"}]}}}, "dtype": {"type": "DT_INT32"}}}, {"name": "PartitionedCall/split_47", "op": "Const", "attr": {"dtype": {"type": "DT_FLOAT"}, "value": {"tensor": {"dtype": "DT_FLOAT", "tensorShape": {"dim": [{"size": "3"}, {"size": "3"}, {"size": "128"}, {"size": "64"}]}}}}}, {"name": "unknown_100", "op": "Const", "attr": {"value": {"tensor": {"dtype": "DT_FLOAT", "tensorShape": {"dim": [{"size": "64"}]}}}, "dtype": {"type": "DT_FLOAT"}}}, {"name": "PartitionedCall/transpose_153/perm", "op": "Const", "attr": {"value": {"tensor": {"dtype": "DT_INT32", "tensorShape": {"dim": [{"size": "4"}]}}}, "dtype": {"type": "DT_INT32"}}}, {"name": "PartitionedCall/Const_34", "op": "Const", "attr": {"value": {"tensor": {"dtype": "DT_INT32", "tensorShape": {"dim": [{"size": "4"}, {"size": "2"}]}}}, "dtype": {"type": "DT_INT32"}}}, {"name": "PartitionedCall/transpose_158/perm", "op": "Const", "attr": {"value": {"tensor": {"dtype": "DT_INT32", "tensorShape": {"dim": [{"size": "4"}]}}}, "dtype": {"type": "DT_INT32"}}}, {"name": "PartitionedCall/split_49", "op": "Const", "attr": {"dtype": {"type": "DT_FLOAT"}, "value": {"tensor": {"dtype": "DT_FLOAT", "tensorShape": {"dim": [{"size": "3"}, {"size": "3"}, {"size": "64"}, {"size": "64"}]}}}}}, {"name": "unknown_104", "op": "Const", "attr": {"value": {"tensor": {"dtype": "DT_FLOAT", "tensorShape": {"dim": [{"size": "64"}]}}}, "dtype": {"type": "DT_FLOAT"}}}, {"name": "PartitionedCall/transpose_159/perm", "op": "Const", "attr": {"dtype": {"type": "DT_INT32"}, "value": {"tensor": {"dtype": "DT_INT32", "tensorShape": {"dim": [{"size": "4"}]}}}}}, {"name": "PartitionedCall/transpose_167/perm", "op": "Const", "attr": {"dtype": {"type": "DT_INT32"}, "value": {"tensor": {"dtype": "DT_INT32", "tensorShape": {"dim": [{"size": "4"}]}}}}}, {"name": "PartitionedCall/split_52", "op": "Const", "attr": {"value": {"tensor": {"dtype": "DT_FLOAT", "tensorShape": {"dim": [{"size": "1"}, {"size": "1"}, {"size": "64"}, {"size": "64"}]}}}, "dtype": {"type": "DT_FLOAT"}}}, {"name": "unknown_110", "op": "Const", "attr": {"dtype": {"type": "DT_FLOAT"}, "value": {"tensor": {"dtype": "DT_FLOAT", "tensorShape": {"dim": [{"size": "64"}]}}}}}, {"name": "PartitionedCall/transpose_168/perm", "op": "Const", "attr": {"dtype": {"type": "DT_INT32"}, "value": {"tensor": {"dtype": "DT_INT32", "tensorShape": {"dim": [{"size": "4"}]}}}}}, {"name": "PartitionedCall/Const_33", "op": "Const", "attr": {"value": {"tensor": {"dtype": "DT_INT32", "tensorShape": {"dim": [{"size": "4"}, {"size": "2"}]}}}, "dtype": {"type": "DT_INT32"}}}, {"name": "PartitionedCall/transpose_155/perm", "op": "Const", "attr": {"dtype": {"type": "DT_INT32"}, "value": {"tensor": {"dtype": "DT_INT32", "tensorShape": {"dim": [{"size": "4"}]}}}}}, {"name": "PartitionedCall/split_48", "op": "Const", "attr": {"dtype": {"type": "DT_FLOAT"}, "value": {"tensor": {"dtype": "DT_FLOAT", "tensorShape": {"dim": [{"size": "3"}, {"size": "3"}, {"size": "128"}, {"size": "64"}]}}}}}, {"name": "unknown_102", "op": "Const", "attr": {"value": {"tensor": {"dtype": "DT_FLOAT", "tensorShape": {"dim": [{"size": "64"}]}}}, "dtype": {"type": "DT_FLOAT"}}}, {"name": "PartitionedCall/transpose_156/perm", "op": "Const", "attr": {"dtype": {"type": "DT_INT32"}, "value": {"tensor": {"dtype": "DT_INT32", "tensorShape": {"dim": [{"size": "4"}]}}}}}, {"name": "PartitionedCall/Const_35", "op": "Const", "attr": {"dtype": {"type": "DT_INT32"}, "value": {"tensor": {"dtype": "DT_INT32", "tensorShape": {"dim": [{"size": "4"}, {"size": "2"}]}}}}}, {"name": "PartitionedCall/transpose_161/perm", "op": "Const", "attr": {"value": {"tensor": {"dtype": "DT_INT32", "tensorShape": {"dim": [{"size": "4"}]}}}, "dtype": {"type": "DT_INT32"}}}, {"name": "PartitionedCall/split_50", "op": "Const", "attr": {"dtype": {"type": "DT_FLOAT"}, "value": {"tensor": {"dtype": "DT_FLOAT", "tensorShape": {"dim": [{"size": "3"}, {"size": "3"}, {"size": "64"}, {"size": "64"}]}}}}}, {"name": "unknown_106", "op": "Const", "attr": {"dtype": {"type": "DT_FLOAT"}, "value": {"tensor": {"dtype": "DT_FLOAT", "tensorShape": {"dim": [{"size": "64"}]}}}}}, {"name": "PartitionedCall/transpose_162/perm", "op": "Const", "attr": {"dtype": {"type": "DT_INT32"}, "value": {"tensor": {"dtype": "DT_INT32", "tensorShape": {"dim": [{"size": "4"}]}}}}}, {"name": "PartitionedCall/transpose_170/perm", "op": "Const", "attr": {"dtype": {"type": "DT_INT32"}, "value": {"tensor": {"dtype": "DT_INT32", "tensorShape": {"dim": [{"size": "4"}]}}}}}, {"name": "PartitionedCall/split_53", "op": "Const", "attr": {"dtype": {"type": "DT_FLOAT"}, "value": {"tensor": {"dtype": "DT_FLOAT", "tensorShape": {"dim": [{"size": "1"}, {"size": "1"}, {"size": "64"}, {"size": "6"}]}}}}}, {"name": "unknown_112", "op": "Const", "attr": {"dtype": {"type": "DT_FLOAT"}, "value": {"tensor": {"dtype": "DT_FLOAT", "tensorShape": {"dim": [{"size": "6"}]}}}}}, {"name": "PartitionedCall/transpose_171/perm", "op": "Const", "attr": {"dtype": {"type": "DT_INT32"}, "value": {"tensor": {"dtype": "DT_INT32", "tensorShape": {"dim": [{"size": "4"}]}}}}}, {"name": "PartitionedCall/onnx_tf_prefix_/model.22/Concat_1/axis", "op": "Const", "attr": {"dtype": {"type": "DT_INT32"}, "value": {"tensor": {"dtype": "DT_INT32", "tensorShape": {}}}}}, {"name": "PartitionedCall/Where_1", "op": "Const", "attr": {"value": {"tensor": {"dtype": "DT_INT64", "tensorShape": {"dim": [{}, {"size": "1"}]}}}, "dtype": {"type": "DT_INT64"}}}, {"name": "PartitionedCall/Cast_5", "op": "Const", "attr": {"dtype": {"type": "DT_INT64"}, "value": {"tensor": {"dtype": "DT_INT64", "tensorShape": {"dim": [{"size": "1"}]}}}}}, {"name": "PartitionedCall/GatherV2_1", "op": "Const", "attr": {"value": {"tensor": {"dtype": "DT_INT64", "tensorShape": {"dim": [{}]}}}, "dtype": {"type": "DT_INT64"}}}, {"name": "PartitionedCall/zeros_1", "op": "Const", "attr": {"dtype": {"type": "DT_INT64"}, "value": {"tensor": {"dtype": "DT_INT64", "tensorShape": {}}}}}, {"name": "PartitionedCall/Const_39", "op": "Const", "attr": {"dtype": {"type": "DT_INT32"}, "value": {"tensor": {"dtype": "DT_INT32", "tensorShape": {"dim": [{"size": "4"}, {"size": "2"}]}}}}}, {"name": "PartitionedCall/transpose_182/perm", "op": "Const", "attr": {"dtype": {"type": "DT_INT32"}, "value": {"tensor": {"dtype": "DT_INT32", "tensorShape": {"dim": [{"size": "4"}]}}}}}, {"name": "PartitionedCall/split_57", "op": "Const", "attr": {"dtype": {"type": "DT_FLOAT"}, "value": {"tensor": {"dtype": "DT_FLOAT", "tensorShape": {"dim": [{"size": "3"}, {"size": "3"}, {"size": "256"}, {"size": "64"}]}}}}}, {"name": "unknown_120", "op": "Const", "attr": {"dtype": {"type": "DT_FLOAT"}, "value": {"tensor": {"dtype": "DT_FLOAT", "tensorShape": {"dim": [{"size": "64"}]}}}}}, {"name": "PartitionedCall/transpose_183/perm", "op": "Const", "attr": {"dtype": {"type": "DT_INT32"}, "value": {"tensor": {"dtype": "DT_INT32", "tensorShape": {"dim": [{"size": "4"}]}}}}}, {"name": "PartitionedCall/Const_41", "op": "Const", "attr": {"dtype": {"type": "DT_INT32"}, "value": {"tensor": {"dtype": "DT_INT32", "tensorShape": {"dim": [{"size": "4"}, {"size": "2"}]}}}}}, {"name": "PartitionedCall/transpose_188/perm", "op": "Const", "attr": {"dtype": {"type": "DT_INT32"}, "value": {"tensor": {"dtype": "DT_INT32", "tensorShape": {"dim": [{"size": "4"}]}}}}}, {"name": "PartitionedCall/split_59", "op": "Const", "attr": {"value": {"tensor": {"dtype": "DT_FLOAT", "tensorShape": {"dim": [{"size": "3"}, {"size": "3"}, {"size": "64"}, {"size": "64"}]}}}, "dtype": {"type": "DT_FLOAT"}}}, {"name": "unknown_124", "op": "Const", "attr": {"dtype": {"type": "DT_FLOAT"}, "value": {"tensor": {"dtype": "DT_FLOAT", "tensorShape": {"dim": [{"size": "64"}]}}}}}, {"name": "PartitionedCall/transpose_189/perm", "op": "Const", "attr": {"dtype": {"type": "DT_INT32"}, "value": {"tensor": {"dtype": "DT_INT32", "tensorShape": {"dim": [{"size": "4"}]}}}}}, {"name": "PartitionedCall/transpose_194/perm", "op": "Const", "attr": {"dtype": {"type": "DT_INT32"}, "value": {"tensor": {"dtype": "DT_INT32", "tensorShape": {"dim": [{"size": "4"}]}}}}}, {"name": "PartitionedCall/split_61", "op": "Const", "attr": {"dtype": {"type": "DT_FLOAT"}, "value": {"tensor": {"dtype": "DT_FLOAT", "tensorShape": {"dim": [{"size": "1"}, {"size": "1"}, {"size": "64"}, {"size": "64"}]}}}}}, {"name": "unknown_128", "op": "Const", "attr": {"dtype": {"type": "DT_FLOAT"}, "value": {"tensor": {"dtype": "DT_FLOAT", "tensorShape": {"dim": [{"size": "64"}]}}}}}, {"name": "PartitionedCall/transpose_195/perm", "op": "Const", "attr": {"dtype": {"type": "DT_INT32"}, "value": {"tensor": {"dtype": "DT_INT32", "tensorShape": {"dim": [{"size": "4"}]}}}}}, {"name": "PartitionedCall/transpose_101/perm", "op": "Const", "attr": {"dtype": {"type": "DT_INT32"}, "value": {"tensor": {"dtype": "DT_INT32", "tensorShape": {"dim": [{"size": "4"}]}}}}}, {"name": "PartitionedCall/Cast_3", "op": "Const", "attr": {"dtype": {"type": "DT_INT32"}, "value": {"tensor": {"dtype": "DT_INT32", "tensorShape": {"dim": [{"size": "2"}]}}}}}, {"name": "PartitionedCall/transpose_102/perm", "op": "Const", "attr": {"dtype": {"type": "DT_INT32"}, "value": {"tensor": {"dtype": "DT_INT32", "tensorShape": {"dim": [{"size": "4"}]}}}}}, {"name": "PartitionedCall/onnx_tf_prefix_/model.14/Concat/axis", "op": "Const", "attr": {"dtype": {"type": "DT_INT32"}, "value": {"tensor": {"dtype": "DT_INT32", "tensorShape": {}}}}}, {"name": "PartitionedCall/transpose_104/perm", "op": "Const", "attr": {"dtype": {"type": "DT_INT32"}, "value": {"tensor": {"dtype": "DT_INT32", "tensorShape": {"dim": [{"size": "4"}]}}}}}, {"name": "PartitionedCall/split_31", "op": "Const", "attr": {"dtype": {"type": "DT_FLOAT"}, "value": {"tensor": {"dtype": "DT_FLOAT", "tensorShape": {"dim": [{"size": "1"}, {"size": "1"}, {"size": "192"}, {"size": "64"}]}}}}}, {"name": "unknown_67", "op": "Const", "attr": {"dtype": {"type": "DT_FLOAT"}, "value": {"tensor": {"dtype": "DT_FLOAT", "tensorShape": {"dim": [{"size": "64"}]}}}}}, {"name": "PartitionedCall/transpose_105/perm", "op": "Const", "attr": {"dtype": {"type": "DT_INT32"}, "value": {"tensor": {"dtype": "DT_INT32", "tensorShape": {"dim": [{"size": "4"}]}}}}}, {"name": "PartitionedCall/onnx_tf_prefix_/model.15/Split/split_dim", "op": "Const", "attr": {"dtype": {"type": "DT_INT32"}, "value": {"tensor": {"dtype": "DT_INT32", "tensorShape": {}}}}}, {"name": "PartitionedCall/Const_21", "op": "Const", "attr": {"dtype": {"type": "DT_INT32"}, "value": {"tensor": {"dtype": "DT_INT32", "tensorShape": {"dim": [{"size": "4"}, {"size": "2"}]}}}}}, {"name": "PartitionedCall/transpose_107/perm", "op": "Const", "attr": {"value": {"tensor": {"dtype": "DT_INT32", "tensorShape": {"dim": [{"size": "4"}]}}}, "dtype": {"type": "DT_INT32"}}}, {"name": "PartitionedCall/split_32", "op": "Const", "attr": {"dtype": {"type": "DT_FLOAT"}, "value": {"tensor": {"dtype": "DT_FLOAT", "tensorShape": {"dim": [{"size": "3"}, {"size": "3"}, {"size": "32"}, {"size": "32"}]}}}}}, {"name": "unknown_69", "op": "Const", "attr": {"dtype": {"type": "DT_FLOAT"}, "value": {"tensor": {"dtype": "DT_FLOAT", "tensorShape": {"dim": [{"size": "32"}]}}}}}, {"name": "PartitionedCall/transpose_108/perm", "op": "Const", "attr": {"dtype": {"type": "DT_INT32"}, "value": {"tensor": {"dtype": "DT_INT32", "tensorShape": {"dim": [{"size": "4"}]}}}}}, {"name": "PartitionedCall/Const_22", "op": "Const", "attr": {"dtype": {"type": "DT_INT32"}, "value": {"tensor": {"dtype": "DT_INT32", "tensorShape": {"dim": [{"size": "4"}, {"size": "2"}]}}}}}, {"name": "PartitionedCall/transpose_110/perm", "op": "Const", "attr": {"dtype": {"type": "DT_INT32"}, "value": {"tensor": {"dtype": "DT_INT32", "tensorShape": {"dim": [{"size": "4"}]}}}}}, {"name": "PartitionedCall/split_33", "op": "Const", "attr": {"value": {"tensor": {"dtype": "DT_FLOAT", "tensorShape": {"dim": [{"size": "3"}, {"size": "3"}, {"size": "32"}, {"size": "32"}]}}}, "dtype": {"type": "DT_FLOAT"}}}, {"name": "unknown_71", "op": "Const", "attr": {"dtype": {"type": "DT_FLOAT"}, "value": {"tensor": {"dtype": "DT_FLOAT", "tensorShape": {"dim": [{"size": "32"}]}}}}}, {"name": "PartitionedCall/transpose_111/perm", "op": "Const", "attr": {"value": {"tensor": {"dtype": "DT_INT32", "tensorShape": {"dim": [{"size": "4"}]}}}, "dtype": {"type": "DT_INT32"}}}, {"name": "PartitionedCall/onnx_tf_prefix_/model.15/Concat/axis", "op": "Const", "attr": {"value": {"tensor": {"dtype": "DT_INT32", "tensorShape": {}}}, "dtype": {"type": "DT_INT32"}}}, {"name": "PartitionedCall/transpose_113/perm", "op": "Const", "attr": {"dtype": {"type": "DT_INT32"}, "value": {"tensor": {"dtype": "DT_INT32", "tensorShape": {"dim": [{"size": "4"}]}}}}}, {"name": "PartitionedCall/split_34", "op": "Const", "attr": {"value": {"tensor": {"dtype": "DT_FLOAT", "tensorShape": {"dim": [{"size": "1"}, {"size": "1"}, {"size": "96"}, {"size": "64"}]}}}, "dtype": {"type": "DT_FLOAT"}}}, {"name": "unknown_73", "op": "Const", "attr": {"value": {"tensor": {"dtype": "DT_FLOAT", "tensorShape": {"dim": [{"size": "64"}]}}}, "dtype": {"type": "DT_FLOAT"}}}, {"name": "PartitionedCall/transpose_114/perm", "op": "Const", "attr": {"dtype": {"type": "DT_INT32"}, "value": {"tensor": {"dtype": "DT_INT32", "tensorShape": {"dim": [{"size": "4"}]}}}}}, {"name": "PartitionedCall/Const_23", "op": "Const", "attr": {"value": {"tensor": {"dtype": "DT_INT32", "tensorShape": {"dim": [{"size": "4"}, {"size": "2"}]}}}, "dtype": {"type": "DT_INT32"}}}, {"name": "PartitionedCall/transpose_116/perm", "op": "Const", "attr": {"value": {"tensor": {"dtype": "DT_INT32", "tensorShape": {"dim": [{"size": "4"}]}}}, "dtype": {"type": "DT_INT32"}}}, {"name": "PartitionedCall/split_35", "op": "Const", "attr": {"value": {"tensor": {"dtype": "DT_FLOAT", "tensorShape": {"dim": [{"size": "3"}, {"size": "3"}, {"size": "64"}, {"size": "64"}]}}}, "dtype": {"type": "DT_FLOAT"}}}, {"name": "unknown_75", "op": "Const", "attr": {"value": {"tensor": {"dtype": "DT_FLOAT", "tensorShape": {"dim": [{"size": "64"}]}}}, "dtype": {"type": "DT_FLOAT"}}}, {"name": "PartitionedCall/transpose_117/perm", "op": "Const", "attr": {"value": {"tensor": {"dtype": "DT_INT32", "tensorShape": {"dim": [{"size": "4"}]}}}, "dtype": {"type": "DT_INT32"}}}, {"name": "PartitionedCall/transpose_87/perm", "op": "Const", "attr": {"dtype": {"type": "DT_INT32"}, "value": {"tensor": {"dtype": "DT_INT32", "tensorShape": {"dim": [{"size": "4"}]}}}}}, {"name": "PartitionedCall/Cast_1", "op": "Const", "attr": {"value": {"tensor": {"dtype": "DT_INT32", "tensorShape": {"dim": [{"size": "2"}]}}}, "dtype": {"type": "DT_INT32"}}}, {"name": "PartitionedCall/transpose_88/perm", "op": "Const", "attr": {"dtype": {"type": "DT_INT32"}, "value": {"tensor": {"dtype": "DT_INT32", "tensorShape": {"dim": [{"size": "4"}]}}}}}, {"name": "PartitionedCall/onnx_tf_prefix_/model.11/Concat/axis", "op": "Const", "attr": {"value": {"tensor": {"dtype": "DT_INT32", "tensorShape": {}}}, "dtype": {"type": "DT_INT32"}}}, {"name": "PartitionedCall/transpose_90/perm", "op": "Const", "attr": {"value": {"tensor": {"dtype": "DT_INT32", "tensorShape": {"dim": [{"size": "4"}]}}}, "dtype": {"type": "DT_INT32"}}}, {"name": "PartitionedCall/split_27", "op": "Const", "attr": {"value": {"tensor": {"dtype": "DT_FLOAT", "tensorShape": {"dim": [{"size": "1"}, {"size": "1"}, {"size": "384"}, {"size": "128"}]}}}, "dtype": {"type": "DT_FLOAT"}}}, {"name": "unknown_59", "op": "Const", "attr": {"dtype": {"type": "DT_FLOAT"}, "value": {"tensor": {"dtype": "DT_FLOAT", "tensorShape": {"dim": [{"size": "128"}]}}}}}, {"name": "PartitionedCall/transpose_91/perm", "op": "Const", "attr": {"dtype": {"type": "DT_INT32"}, "value": {"tensor": {"dtype": "DT_INT32", "tensorShape": {"dim": [{"size": "4"}]}}}}}, {"name": "PartitionedCall/onnx_tf_prefix_/model.12/Split/split_dim", "op": "Const", "attr": {"value": {"tensor": {"dtype": "DT_INT32", "tensorShape": {}}}, "dtype": {"type": "DT_INT32"}}}, {"name": "PartitionedCall/Const_18", "op": "Const", "attr": {"value": {"tensor": {"dtype": "DT_INT32", "tensorShape": {"dim": [{"size": "4"}, {"size": "2"}]}}}, "dtype": {"type": "DT_INT32"}}}, {"name": "PartitionedCall/transpose_93/perm", "op": "Const", "attr": {"value": {"tensor": {"dtype": "DT_INT32", "tensorShape": {"dim": [{"size": "4"}]}}}, "dtype": {"type": "DT_INT32"}}}, {"name": "PartitionedCall/split_28", "op": "Const", "attr": {"value": {"tensor": {"dtype": "DT_FLOAT", "tensorShape": {"dim": [{"size": "3"}, {"size": "3"}, {"size": "64"}, {"size": "64"}]}}}, "dtype": {"type": "DT_FLOAT"}}}, {"name": "unknown_61", "op": "Const", "attr": {"value": {"tensor": {"dtype": "DT_FLOAT", "tensorShape": {"dim": [{"size": "64"}]}}}, "dtype": {"type": "DT_FLOAT"}}}, {"name": "PartitionedCall/transpose_94/perm", "op": "Const", "attr": {"value": {"tensor": {"dtype": "DT_INT32", "tensorShape": {"dim": [{"size": "4"}]}}}, "dtype": {"type": "DT_INT32"}}}, {"name": "PartitionedCall/Const_19", "op": "Const", "attr": {"dtype": {"type": "DT_INT32"}, "value": {"tensor": {"dtype": "DT_INT32", "tensorShape": {"dim": [{"size": "4"}, {"size": "2"}]}}}}}, {"name": "PartitionedCall/transpose_96/perm", "op": "Const", "attr": {"value": {"tensor": {"dtype": "DT_INT32", "tensorShape": {"dim": [{"size": "4"}]}}}, "dtype": {"type": "DT_INT32"}}}, {"name": "PartitionedCall/split_29", "op": "Const", "attr": {"value": {"tensor": {"dtype": "DT_FLOAT", "tensorShape": {"dim": [{"size": "3"}, {"size": "3"}, {"size": "64"}, {"size": "64"}]}}}, "dtype": {"type": "DT_FLOAT"}}}, {"name": "unknown_63", "op": "Const", "attr": {"value": {"tensor": {"dtype": "DT_FLOAT", "tensorShape": {"dim": [{"size": "64"}]}}}, "dtype": {"type": "DT_FLOAT"}}}, {"name": "PartitionedCall/transpose_97/perm", "op": "Const", "attr": {"value": {"tensor": {"dtype": "DT_INT32", "tensorShape": {"dim": [{"size": "4"}]}}}, "dtype": {"type": "DT_INT32"}}}, {"name": "PartitionedCall/onnx_tf_prefix_/model.12/Concat/axis", "op": "Const", "attr": {"value": {"tensor": {"dtype": "DT_INT32", "tensorShape": {}}}, "dtype": {"type": "DT_INT32"}}}, {"name": "PartitionedCall/transpose_99/perm", "op": "Const", "attr": {"value": {"tensor": {"dtype": "DT_INT32", "tensorShape": {"dim": [{"size": "4"}]}}}, "dtype": {"type": "DT_INT32"}}}, {"name": "PartitionedCall/split_30", "op": "Const", "attr": {"dtype": {"type": "DT_FLOAT"}, "value": {"tensor": {"dtype": "DT_FLOAT", "tensorShape": {"dim": [{"size": "1"}, {"size": "1"}, {"size": "192"}, {"size": "128"}]}}}}}, {"name": "unknown_65", "op": "Const", "attr": {"dtype": {"type": "DT_FLOAT"}, "value": {"tensor": {"dtype": "DT_FLOAT", "tensorShape": {"dim": [{"size": "128"}]}}}}}, {"name": "PartitionedCall/transpose_100/perm", "op": "Const", "attr": {"value": {"tensor": {"dtype": "DT_INT32", "tensorShape": {"dim": [{"size": "4"}]}}}, "dtype": {"type": "DT_INT32"}}}, {"name": "PartitionedCall/onnx_tf_prefix_/model.17/Concat/axis", "op": "Const", "attr": {"value": {"tensor": {"dtype": "DT_INT32", "tensorShape": {}}}, "dtype": {"type": "DT_INT32"}}}, {"name": "PartitionedCall/transpose_131/perm", "op": "Const", "attr": {"value": {"tensor": {"dtype": "DT_INT32", "tensorShape": {"dim": [{"size": "4"}]}}}, "dtype": {"type": "DT_INT32"}}}, {"name": "PartitionedCall/split_40", "op": "Const", "attr": {"dtype": {"type": "DT_FLOAT"}, "value": {"tensor": {"dtype": "DT_FLOAT", "tensorShape": {"dim": [{"size": "1"}, {"size": "1"}, {"size": "192"}, {"size": "128"}]}}}}}, {"name": "unknown_85", "op": "Const", "attr": {"dtype": {"type": "DT_FLOAT"}, "value": {"tensor": {"dtype": "DT_FLOAT", "tensorShape": {"dim": [{"size": "128"}]}}}}}, {"name": "PartitionedCall/transpose_132/perm", "op": "Const", "attr": {"value": {"tensor": {"dtype": "DT_INT32", "tensorShape": {"dim": [{"size": "4"}]}}}, "dtype": {"type": "DT_INT32"}}}, {"name": "PartitionedCall/onnx_tf_prefix_/model.18/Split/split_dim", "op": "Const", "attr": {"dtype": {"type": "DT_INT32"}, "value": {"tensor": {"dtype": "DT_INT32", "tensorShape": {}}}}}, {"name": "PartitionedCall/Const_28", "op": "Const", "attr": {"dtype": {"type": "DT_INT32"}, "value": {"tensor": {"dtype": "DT_INT32", "tensorShape": {"dim": [{"size": "4"}, {"size": "2"}]}}}}}, {"name": "PartitionedCall/transpose_140/perm", "op": "Const", "attr": {"dtype": {"type": "DT_INT32"}, "value": {"tensor": {"dtype": "DT_INT32", "tensorShape": {"dim": [{"size": "4"}]}}}}}, {"name": "PartitionedCall/split_43", "op": "Const", "attr": {"value": {"tensor": {"dtype": "DT_FLOAT", "tensorShape": {"dim": [{"size": "3"}, {"size": "3"}, {"size": "64"}, {"size": "64"}]}}}, "dtype": {"type": "DT_FLOAT"}}}, {"name": "unknown_91", "op": "Const", "attr": {"dtype": {"type": "DT_FLOAT"}, "value": {"tensor": {"dtype": "DT_FLOAT", "tensorShape": {"dim": [{"size": "64"}]}}}}}, {"name": "PartitionedCall/transpose_141/perm", "op": "Const", "attr": {"dtype": {"type": "DT_INT32"}, "value": {"tensor": {"dtype": "DT_INT32", "tensorShape": {"dim": [{"size": "4"}]}}}}}, {"name": "PartitionedCall/Const_30", "op": "Const", "attr": {"dtype": {"type": "DT_INT32"}, "value": {"tensor": {"dtype": "DT_INT32", "tensorShape": {"dim": [{"size": "4"}, {"size": "2"}]}}}}}, {"name": "PartitionedCall/transpose_143/perm", "op": "Const", "attr": {"value": {"tensor": {"dtype": "DT_INT32", "tensorShape": {"dim": [{"size": "4"}]}}}, "dtype": {"type": "DT_INT32"}}}, {"name": "PartitionedCall/split_44", "op": "Const", "attr": {"dtype": {"type": "DT_FLOAT"}, "value": {"tensor": {"dtype": "DT_FLOAT", "tensorShape": {"dim": [{"size": "3"}, {"size": "3"}, {"size": "64"}, {"size": "64"}]}}}}}, {"name": "unknown_94", "op": "Const", "attr": {"value": {"tensor": {"dtype": "DT_FLOAT", "tensorShape": {"dim": [{"size": "64"}]}}}, "dtype": {"type": "DT_FLOAT"}}}, {"name": "PartitionedCall/transpose_144/perm", "op": "Const", "attr": {"value": {"tensor": {"dtype": "DT_INT32", "tensorShape": {"dim": [{"size": "4"}]}}}, "dtype": {"type": "DT_INT32"}}}, {"name": "PartitionedCall/onnx_tf_prefix_/model.18/Concat/axis", "op": "Const", "attr": {"dtype": {"type": "DT_INT32"}, "value": {"tensor": {"dtype": "DT_INT32", "tensorShape": {}}}}}, {"name": "PartitionedCall/transpose_146/perm", "op": "Const", "attr": {"dtype": {"type": "DT_INT32"}, "value": {"tensor": {"dtype": "DT_INT32", "tensorShape": {"dim": [{"size": "4"}]}}}}}, {"name": "PartitionedCall/split_45", "op": "Const", "attr": {"dtype": {"type": "DT_FLOAT"}, "value": {"tensor": {"dtype": "DT_FLOAT", "tensorShape": {"dim": [{"size": "1"}, {"size": "1"}, {"size": "192"}, {"size": "128"}]}}}}}, {"name": "unknown_96", "op": "Const", "attr": {"dtype": {"type": "DT_FLOAT"}, "value": {"tensor": {"dtype": "DT_FLOAT", "tensorShape": {"dim": [{"size": "128"}]}}}}}, {"name": "PartitionedCall/transpose_147/perm", "op": "Const", "attr": {"dtype": {"type": "DT_INT32"}, "value": {"tensor": {"dtype": "DT_INT32", "tensorShape": {"dim": [{"size": "4"}]}}}}}, {"name": "PartitionedCall/Const_31", "op": "Const", "attr": {"value": {"tensor": {"dtype": "DT_INT32", "tensorShape": {"dim": [{"size": "4"}, {"size": "2"}]}}}, "dtype": {"type": "DT_INT32"}}}, {"name": "PartitionedCall/transpose_149/perm", "op": "Const", "attr": {"dtype": {"type": "DT_INT32"}, "value": {"tensor": {"dtype": "DT_INT32", "tensorShape": {"dim": [{"size": "4"}]}}}}}, {"name": "PartitionedCall/split_46", "op": "Const", "attr": {"value": {"tensor": {"dtype": "DT_FLOAT", "tensorShape": {"dim": [{"size": "3"}, {"size": "3"}, {"size": "128"}, {"size": "128"}]}}}, "dtype": {"type": "DT_FLOAT"}}}, {"name": "unknown_98", "op": "Const", "attr": {"dtype": {"type": "DT_FLOAT"}, "value": {"tensor": {"dtype": "DT_FLOAT", "tensorShape": {"dim": [{"size": "128"}]}}}}}, {"name": "PartitionedCall/transpose_150/perm", "op": "Const", "attr": {"dtype": {"type": "DT_INT32"}, "value": {"tensor": {"dtype": "DT_INT32", "tensorShape": {"dim": [{"size": "4"}]}}}}}, {"name": "PartitionedCall/transpose_79/perm", "op": "Const", "attr": {"value": {"tensor": {"dtype": "DT_INT32", "tensorShape": {"dim": [{"size": "4"}]}}}, "dtype": {"type": "DT_INT32"}}}, {"name": "PartitionedCall/transpose_81/perm", "op": "Const", "attr": {"dtype": {"type": "DT_INT32"}, "value": {"tensor": {"dtype": "DT_INT32", "tensorShape": {"dim": [{"size": "4"}]}}}}}, {"name": "PartitionedCall/Const", "op": "Const", "attr": {"dtype": {"type": "DT_INT32"}, "value": {"tensor": {"dtype": "DT_INT32", "tensorShape": {"dim": [{"size": "4"}, {"size": "2"}]}}}}}, {"name": "PartitionedCall/transpose_1/perm", "op": "Const", "attr": {"dtype": {"type": "DT_INT32"}, "value": {"tensor": {"dtype": "DT_INT32", "tensorShape": {"dim": [{"size": "4"}]}}}}}, {"name": "PartitionedCall/split", "op": "Const", "attr": {"dtype": {"type": "DT_FLOAT"}, "value": {"tensor": {"dtype": "DT_FLOAT", "tensorShape": {"dim": [{"size": "3"}, {"size": "3"}, {"size": "3"}, {"size": "16"}]}}}}}, {"name": "unknown_0", "op": "Const", "attr": {"dtype": {"type": "DT_FLOAT"}, "value": {"tensor": {"dtype": "DT_FLOAT", "tensorShape": {"dim": [{"size": "16"}]}}}}}, {"name": "PartitionedCall/transpose_2/perm", "op": "Const", "attr": {"dtype": {"type": "DT_INT32"}, "value": {"tensor": {"dtype": "DT_INT32", "tensorShape": {"dim": [{"size": "4"}]}}}}}, {"name": "PartitionedCall/Const_1", "op": "Const", "attr": {"dtype": {"type": "DT_INT32"}, "value": {"tensor": {"dtype": "DT_INT32", "tensorShape": {"dim": [{"size": "4"}, {"size": "2"}]}}}}}, {"name": "PartitionedCall/transpose_4/perm", "op": "Const", "attr": {"value": {"tensor": {"dtype": "DT_INT32", "tensorShape": {"dim": [{"size": "4"}]}}}, "dtype": {"type": "DT_INT32"}}}, {"name": "PartitionedCall/split_1", "op": "Const", "attr": {"dtype": {"type": "DT_FLOAT"}, "value": {"tensor": {"dtype": "DT_FLOAT", "tensorShape": {"dim": [{"size": "3"}, {"size": "3"}, {"size": "16"}, {"size": "32"}]}}}}}, {"name": "unknown_2", "op": "Const", "attr": {"value": {"tensor": {"dtype": "DT_FLOAT", "tensorShape": {"dim": [{"size": "32"}]}}}, "dtype": {"type": "DT_FLOAT"}}}, {"name": "PartitionedCall/transpose_5/perm", "op": "Const", "attr": {"dtype": {"type": "DT_INT32"}, "value": {"tensor": {"dtype": "DT_INT32", "tensorShape": {"dim": [{"size": "4"}]}}}}}, {"name": "PartitionedCall/transpose_7/perm", "op": "Const", "attr": {"value": {"tensor": {"dtype": "DT_INT32", "tensorShape": {"dim": [{"size": "4"}]}}}, "dtype": {"type": "DT_INT32"}}}, {"name": "PartitionedCall/split_2", "op": "Const", "attr": {"dtype": {"type": "DT_FLOAT"}, "value": {"tensor": {"dtype": "DT_FLOAT", "tensorShape": {"dim": [{"size": "1"}, {"size": "1"}, {"size": "32"}, {"size": "32"}]}}}}}, {"name": "unknown_4", "op": "Const", "attr": {"value": {"tensor": {"dtype": "DT_FLOAT", "tensorShape": {"dim": [{"size": "32"}]}}}, "dtype": {"type": "DT_FLOAT"}}}, {"name": "PartitionedCall/transpose_8/perm", "op": "Const", "attr": {"dtype": {"type": "DT_INT32"}, "value": {"tensor": {"dtype": "DT_INT32", "tensorShape": {"dim": [{"size": "4"}]}}}}}, {"name": "unknown_5", "op": "Const", "attr": {"dtype": {"type": "DT_INT64"}, "value": {"tensor": {"dtype": "DT_INT64", "tensorShape": {"dim": [{"size": "2"}]}}}}}, {"name": "PartitionedCall/onnx_tf_prefix_/model.2/Split/split_dim", "op": "Const", "attr": {"dtype": {"type": "DT_INT32"}, "value": {"tensor": {"dtype": "DT_INT32", "tensorShape": {}}}}}, {"name": "PartitionedCall/Const_2", "op": "Const", "attr": {"dtype": {"type": "DT_INT32"}, "value": {"tensor": {"dtype": "DT_INT32", "tensorShape": {"dim": [{"size": "4"}, {"size": "2"}]}}}}}, {"name": "PartitionedCall/transpose_10/perm", "op": "Const", "attr": {"dtype": {"type": "DT_INT32"}, "value": {"tensor": {"dtype": "DT_INT32", "tensorShape": {"dim": [{"size": "4"}]}}}}}, {"name": "PartitionedCall/split_3", "op": "Const", "attr": {"dtype": {"type": "DT_FLOAT"}, "value": {"tensor": {"dtype": "DT_FLOAT", "tensorShape": {"dim": [{"size": "3"}, {"size": "3"}, {"size": "16"}, {"size": "16"}]}}}}}, {"name": "unknown_7", "op": "Const", "attr": {"dtype": {"type": "DT_FLOAT"}, "value": {"tensor": {"dtype": "DT_FLOAT", "tensorShape": {"dim": [{"size": "16"}]}}}}}, {"name": "PartitionedCall/transpose_11/perm", "op": "Const", "attr": {"dtype": {"type": "DT_INT32"}, "value": {"tensor": {"dtype": "DT_INT32", "tensorShape": {"dim": [{"size": "4"}]}}}}}, {"name": "PartitionedCall/Const_3", "op": "Const", "attr": {"dtype": {"type": "DT_INT32"}, "value": {"tensor": {"dtype": "DT_INT32", "tensorShape": {"dim": [{"size": "4"}, {"size": "2"}]}}}}}, {"name": "PartitionedCall/transpose_13/perm", "op": "Const", "attr": {"dtype": {"type": "DT_INT32"}, "value": {"tensor": {"dtype": "DT_INT32", "tensorShape": {"dim": [{"size": "4"}]}}}}}, {"name": "PartitionedCall/split_4", "op": "Const", "attr": {"value": {"tensor": {"dtype": "DT_FLOAT", "tensorShape": {"dim": [{"size": "3"}, {"size": "3"}, {"size": "16"}, {"size": "16"}]}}}, "dtype": {"type": "DT_FLOAT"}}}, {"name": "unknown_9", "op": "Const", "attr": {"value": {"tensor": {"dtype": "DT_FLOAT", "tensorShape": {"dim": [{"size": "16"}]}}}, "dtype": {"type": "DT_FLOAT"}}}, {"name": "PartitionedCall/transpose_14/perm", "op": "Const", "attr": {"dtype": {"type": "DT_INT32"}, "value": {"tensor": {"dtype": "DT_INT32", "tensorShape": {"dim": [{"size": "4"}]}}}}}, {"name": "PartitionedCall/onnx_tf_prefix_/model.2/Concat/axis", "op": "Const", "attr": {"dtype": {"type": "DT_INT32"}, "value": {"tensor": {"dtype": "DT_INT32", "tensorShape": {}}}}}, {"name": "PartitionedCall/transpose_16/perm", "op": "Const", "attr": {"dtype": {"type": "DT_INT32"}, "value": {"tensor": {"dtype": "DT_INT32", "tensorShape": {"dim": [{"size": "4"}]}}}}}, {"name": "PartitionedCall/split_5", "op": "Const", "attr": {"value": {"tensor": {"dtype": "DT_FLOAT", "tensorShape": {"dim": [{"size": "1"}, {"size": "1"}, {"size": "48"}, {"size": "32"}]}}}, "dtype": {"type": "DT_FLOAT"}}}, {"name": "unknown_11", "op": "Const", "attr": {"dtype": {"type": "DT_FLOAT"}, "value": {"tensor": {"dtype": "DT_FLOAT", "tensorShape": {"dim": [{"size": "32"}]}}}}}, {"name": "PartitionedCall/transpose_17/perm", "op": "Const", "attr": {"dtype": {"type": "DT_INT32"}, "value": {"tensor": {"dtype": "DT_INT32", "tensorShape": {"dim": [{"size": "4"}]}}}}}, {"name": "PartitionedCall/Const_4", "op": "Const", "attr": {"dtype": {"type": "DT_INT32"}, "value": {"tensor": {"dtype": "DT_INT32", "tensorShape": {"dim": [{"size": "4"}, {"size": "2"}]}}}}}, {"name": "PartitionedCall/transpose_19/perm", "op": "Const", "attr": {"value": {"tensor": {"dtype": "DT_INT32", "tensorShape": {"dim": [{"size": "4"}]}}}, "dtype": {"type": "DT_INT32"}}}, {"name": "PartitionedCall/split_6", "op": "Const", "attr": {"value": {"tensor": {"dtype": "DT_FLOAT", "tensorShape": {"dim": [{"size": "3"}, {"size": "3"}, {"size": "32"}, {"size": "64"}]}}}, "dtype": {"type": "DT_FLOAT"}}}, {"name": "unknown_13", "op": "Const", "attr": {"dtype": {"type": "DT_FLOAT"}, "value": {"tensor": {"dtype": "DT_FLOAT", "tensorShape": {"dim": [{"size": "64"}]}}}}}, {"name": "PartitionedCall/transpose_20/perm", "op": "Const", "attr": {"dtype": {"type": "DT_INT32"}, "value": {"tensor": {"dtype": "DT_INT32", "tensorShape": {"dim": [{"size": "4"}]}}}}}, {"name": "PartitionedCall/transpose_22/perm", "op": "Const", "attr": {"value": {"tensor": {"dtype": "DT_INT32", "tensorShape": {"dim": [{"size": "4"}]}}}, "dtype": {"type": "DT_INT32"}}}, {"name": "PartitionedCall/split_7", "op": "Const", "attr": {"value": {"tensor": {"dtype": "DT_FLOAT", "tensorShape": {"dim": [{"size": "1"}, {"size": "1"}, {"size": "64"}, {"size": "64"}]}}}, "dtype": {"type": "DT_FLOAT"}}}, {"name": "unknown_15", "op": "Const", "attr": {"dtype": {"type": "DT_FLOAT"}, "value": {"tensor": {"dtype": "DT_FLOAT", "tensorShape": {"dim": [{"size": "64"}]}}}}}, {"name": "PartitionedCall/transpose_23/perm", "op": "Const", "attr": {"value": {"tensor": {"dtype": "DT_INT32", "tensorShape": {"dim": [{"size": "4"}]}}}, "dtype": {"type": "DT_INT32"}}}, {"name": "unknown_16", "op": "Const", "attr": {"value": {"tensor": {"dtype": "DT_INT64", "tensorShape": {"dim": [{"size": "2"}]}}}, "dtype": {"type": "DT_INT64"}}}, {"name": "PartitionedCall/onnx_tf_prefix_/model.4/Split/split_dim", "op": "Const", "attr": {"dtype": {"type": "DT_INT32"}, "value": {"tensor": {"dtype": "DT_INT32", "tensorShape": {}}}}}, {"name": "PartitionedCall/Const_5", "op": "Const", "attr": {"value": {"tensor": {"dtype": "DT_INT32", "tensorShape": {"dim": [{"size": "4"}, {"size": "2"}]}}}, "dtype": {"type": "DT_INT32"}}}, {"name": "PartitionedCall/transpose_25/perm", "op": "Const", "attr": {"value": {"tensor": {"dtype": "DT_INT32", "tensorShape": {"dim": [{"size": "4"}]}}}, "dtype": {"type": "DT_INT32"}}}, {"name": "PartitionedCall/split_8", "op": "Const", "attr": {"dtype": {"type": "DT_FLOAT"}, "value": {"tensor": {"dtype": "DT_FLOAT", "tensorShape": {"dim": [{"size": "3"}, {"size": "3"}, {"size": "32"}, {"size": "32"}]}}}}}, {"name": "unknown_18", "op": "Const", "attr": {"value": {"tensor": {"dtype": "DT_FLOAT", "tensorShape": {"dim": [{"size": "32"}]}}}, "dtype": {"type": "DT_FLOAT"}}}, {"name": "PartitionedCall/transpose_26/perm", "op": "Const", "attr": {"dtype": {"type": "DT_INT32"}, "value": {"tensor": {"dtype": "DT_INT32", "tensorShape": {"dim": [{"size": "4"}]}}}}}, {"name": "PartitionedCall/Const_6", "op": "Const", "attr": {"value": {"tensor": {"dtype": "DT_INT32", "tensorShape": {"dim": [{"size": "4"}, {"size": "2"}]}}}, "dtype": {"type": "DT_INT32"}}}, {"name": "PartitionedCall/transpose_28/perm", "op": "Const", "attr": {"value": {"tensor": {"dtype": "DT_INT32", "tensorShape": {"dim": [{"size": "4"}]}}}, "dtype": {"type": "DT_INT32"}}}, {"name": "PartitionedCall/split_9", "op": "Const", "attr": {"dtype": {"type": "DT_FLOAT"}, "value": {"tensor": {"dtype": "DT_FLOAT", "tensorShape": {"dim": [{"size": "3"}, {"size": "3"}, {"size": "32"}, {"size": "32"}]}}}}}, {"name": "unknown_20", "op": "Const", "attr": {"value": {"tensor": {"dtype": "DT_FLOAT", "tensorShape": {"dim": [{"size": "32"}]}}}, "dtype": {"type": "DT_FLOAT"}}}, {"name": "PartitionedCall/transpose_29/perm", "op": "Const", "attr": {"value": {"tensor": {"dtype": "DT_INT32", "tensorShape": {"dim": [{"size": "4"}]}}}, "dtype": {"type": "DT_INT32"}}}, {"name": "PartitionedCall/Const_7", "op": "Const", "attr": {"dtype": {"type": "DT_INT32"}, "value": {"tensor": {"dtype": "DT_INT32", "tensorShape": {"dim": [{"size": "4"}, {"size": "2"}]}}}}}, {"name": "PartitionedCall/transpose_31/perm", "op": "Const", "attr": {"dtype": {"type": "DT_INT32"}, "value": {"tensor": {"dtype": "DT_INT32", "tensorShape": {"dim": [{"size": "4"}]}}}}}, {"name": "PartitionedCall/split_10", "op": "Const", "attr": {"value": {"tensor": {"dtype": "DT_FLOAT", "tensorShape": {"dim": [{"size": "3"}, {"size": "3"}, {"size": "32"}, {"size": "32"}]}}}, "dtype": {"type": "DT_FLOAT"}}}, {"name": "unknown_22", "op": "Const", "attr": {"value": {"tensor": {"dtype": "DT_FLOAT", "tensorShape": {"dim": [{"size": "32"}]}}}, "dtype": {"type": "DT_FLOAT"}}}, {"name": "PartitionedCall/transpose_32/perm", "op": "Const", "attr": {"dtype": {"type": "DT_INT32"}, "value": {"tensor": {"dtype": "DT_INT32", "tensorShape": {"dim": [{"size": "4"}]}}}}}, {"name": "PartitionedCall/Const_8", "op": "Const", "attr": {"dtype": {"type": "DT_INT32"}, "value": {"tensor": {"dtype": "DT_INT32", "tensorShape": {"dim": [{"size": "4"}, {"size": "2"}]}}}}}, {"name": "PartitionedCall/transpose_34/perm", "op": "Const", "attr": {"value": {"tensor": {"dtype": "DT_INT32", "tensorShape": {"dim": [{"size": "4"}]}}}, "dtype": {"type": "DT_INT32"}}}, {"name": "PartitionedCall/split_11", "op": "Const", "attr": {"dtype": {"type": "DT_FLOAT"}, "value": {"tensor": {"dtype": "DT_FLOAT", "tensorShape": {"dim": [{"size": "3"}, {"size": "3"}, {"size": "32"}, {"size": "32"}]}}}}}, {"name": "unknown_24", "op": "Const", "attr": {"dtype": {"type": "DT_FLOAT"}, "value": {"tensor": {"dtype": "DT_FLOAT", "tensorShape": {"dim": [{"size": "32"}]}}}}}, {"name": "PartitionedCall/transpose_35/perm", "op": "Const", "attr": {"value": {"tensor": {"dtype": "DT_INT32", "tensorShape": {"dim": [{"size": "4"}]}}}, "dtype": {"type": "DT_INT32"}}}, {"name": "PartitionedCall/onnx_tf_prefix_/model.4/Concat/axis", "op": "Const", "attr": {"value": {"tensor": {"dtype": "DT_INT32", "tensorShape": {}}}, "dtype": {"type": "DT_INT32"}}}, {"name": "PartitionedCall/transpose_37/perm", "op": "Const", "attr": {"dtype": {"type": "DT_INT32"}, "value": {"tensor": {"dtype": "DT_INT32", "tensorShape": {"dim": [{"size": "4"}]}}}}}, {"name": "PartitionedCall/split_12", "op": "Const", "attr": {"dtype": {"type": "DT_FLOAT"}, "value": {"tensor": {"dtype": "DT_FLOAT", "tensorShape": {"dim": [{"size": "1"}, {"size": "1"}, {"size": "128"}, {"size": "64"}]}}}}}, {"name": "unknown_26", "op": "Const", "attr": {"value": {"tensor": {"dtype": "DT_FLOAT", "tensorShape": {"dim": [{"size": "64"}]}}}, "dtype": {"type": "DT_FLOAT"}}}, {"name": "PartitionedCall/transpose_38/perm", "op": "Const", "attr": {"value": {"tensor": {"dtype": "DT_INT32", "tensorShape": {"dim": [{"size": "4"}]}}}, "dtype": {"type": "DT_INT32"}}}, {"name": "PartitionedCall/Const_9", "op": "Const", "attr": {"value": {"tensor": {"dtype": "DT_INT32", "tensorShape": {"dim": [{"size": "4"}, {"size": "2"}]}}}, "dtype": {"type": "DT_INT32"}}}, {"name": "PartitionedCall/transpose_40/perm", "op": "Const", "attr": {"value": {"tensor": {"dtype": "DT_INT32", "tensorShape": {"dim": [{"size": "4"}]}}}, "dtype": {"type": "DT_INT32"}}}, {"name": "PartitionedCall/split_13", "op": "Const", "attr": {"dtype": {"type": "DT_FLOAT"}, "value": {"tensor": {"dtype": "DT_FLOAT", "tensorShape": {"dim": [{"size": "3"}, {"size": "3"}, {"size": "64"}, {"size": "128"}]}}}}}, {"name": "unknown_28", "op": "Const", "attr": {"dtype": {"type": "DT_FLOAT"}, "value": {"tensor": {"dtype": "DT_FLOAT", "tensorShape": {"dim": [{"size": "128"}]}}}}}, {"name": "PartitionedCall/transpose_41/perm", "op": "Const", "attr": {"dtype": {"type": "DT_INT32"}, "value": {"tensor": {"dtype": "DT_INT32", "tensorShape": {"dim": [{"size": "4"}]}}}}}, {"name": "PartitionedCall/transpose_43/perm", "op": "Const", "attr": {"value": {"tensor": {"dtype": "DT_INT32", "tensorShape": {"dim": [{"size": "4"}]}}}, "dtype": {"type": "DT_INT32"}}}, {"name": "PartitionedCall/split_14", "op": "Const", "attr": {"dtype": {"type": "DT_FLOAT"}, "value": {"tensor": {"dtype": "DT_FLOAT", "tensorShape": {"dim": [{"size": "1"}, {"size": "1"}, {"size": "128"}, {"size": "128"}]}}}}}, {"name": "unknown_30", "op": "Const", "attr": {"dtype": {"type": "DT_FLOAT"}, "value": {"tensor": {"dtype": "DT_FLOAT", "tensorShape": {"dim": [{"size": "128"}]}}}}}, {"name": "PartitionedCall/transpose_44/perm", "op": "Const", "attr": {"value": {"tensor": {"dtype": "DT_INT32", "tensorShape": {"dim": [{"size": "4"}]}}}, "dtype": {"type": "DT_INT32"}}}, {"name": "unknown_31", "op": "Const", "attr": {"dtype": {"type": "DT_INT64"}, "value": {"tensor": {"dtype": "DT_INT64", "tensorShape": {"dim": [{"size": "2"}]}}}}}, {"name": "PartitionedCall/onnx_tf_prefix_/model.6/Split/split_dim", "op": "Const", "attr": {"value": {"tensor": {"dtype": "DT_INT32", "tensorShape": {}}}, "dtype": {"type": "DT_INT32"}}}, {"name": "PartitionedCall/Const_10", "op": "Const", "attr": {"dtype": {"type": "DT_INT32"}, "value": {"tensor": {"dtype": "DT_INT32", "tensorShape": {"dim": [{"size": "4"}, {"size": "2"}]}}}}}, {"name": "PartitionedCall/transpose_46/perm", "op": "Const", "attr": {"value": {"tensor": {"dtype": "DT_INT32", "tensorShape": {"dim": [{"size": "4"}]}}}, "dtype": {"type": "DT_INT32"}}}, {"name": "PartitionedCall/split_15", "op": "Const", "attr": {"value": {"tensor": {"dtype": "DT_FLOAT", "tensorShape": {"dim": [{"size": "3"}, {"size": "3"}, {"size": "64"}, {"size": "64"}]}}}, "dtype": {"type": "DT_FLOAT"}}}, {"name": "unknown_33", "op": "Const", "attr": {"value": {"tensor": {"dtype": "DT_FLOAT", "tensorShape": {"dim": [{"size": "64"}]}}}, "dtype": {"type": "DT_FLOAT"}}}, {"name": "PartitionedCall/transpose_47/perm", "op": "Const", "attr": {"value": {"tensor": {"dtype": "DT_INT32", "tensorShape": {"dim": [{"size": "4"}]}}}, "dtype": {"type": "DT_INT32"}}}, {"name": "PartitionedCall/Const_11", "op": "Const", "attr": {"dtype": {"type": "DT_INT32"}, "value": {"tensor": {"dtype": "DT_INT32", "tensorShape": {"dim": [{"size": "4"}, {"size": "2"}]}}}}}, {"name": "PartitionedCall/transpose_49/perm", "op": "Const", "attr": {"value": {"tensor": {"dtype": "DT_INT32", "tensorShape": {"dim": [{"size": "4"}]}}}, "dtype": {"type": "DT_INT32"}}}, {"name": "PartitionedCall/split_16", "op": "Const", "attr": {"value": {"tensor": {"dtype": "DT_FLOAT", "tensorShape": {"dim": [{"size": "3"}, {"size": "3"}, {"size": "64"}, {"size": "64"}]}}}, "dtype": {"type": "DT_FLOAT"}}}, {"name": "unknown_35", "op": "Const", "attr": {"dtype": {"type": "DT_FLOAT"}, "value": {"tensor": {"dtype": "DT_FLOAT", "tensorShape": {"dim": [{"size": "64"}]}}}}}, {"name": "PartitionedCall/transpose_50/perm", "op": "Const", "attr": {"dtype": {"type": "DT_INT32"}, "value": {"tensor": {"dtype": "DT_INT32", "tensorShape": {"dim": [{"size": "4"}]}}}}}, {"name": "PartitionedCall/Const_12", "op": "Const", "attr": {"value": {"tensor": {"dtype": "DT_INT32", "tensorShape": {"dim": [{"size": "4"}, {"size": "2"}]}}}, "dtype": {"type": "DT_INT32"}}}, {"name": "PartitionedCall/transpose_52/perm", "op": "Const", "attr": {"value": {"tensor": {"dtype": "DT_INT32", "tensorShape": {"dim": [{"size": "4"}]}}}, "dtype": {"type": "DT_INT32"}}}, {"name": "PartitionedCall/split_17", "op": "Const", "attr": {"dtype": {"type": "DT_FLOAT"}, "value": {"tensor": {"dtype": "DT_FLOAT", "tensorShape": {"dim": [{"size": "3"}, {"size": "3"}, {"size": "64"}, {"size": "64"}]}}}}}, {"name": "unknown_37", "op": "Const", "attr": {"dtype": {"type": "DT_FLOAT"}, "value": {"tensor": {"dtype": "DT_FLOAT", "tensorShape": {"dim": [{"size": "64"}]}}}}}, {"name": "PartitionedCall/transpose_53/perm", "op": "Const", "attr": {"dtype": {"type": "DT_INT32"}, "value": {"tensor": {"dtype": "DT_INT32", "tensorShape": {"dim": [{"size": "4"}]}}}}}, {"name": "PartitionedCall/Const_13", "op": "Const", "attr": {"value": {"tensor": {"dtype": "DT_INT32", "tensorShape": {"dim": [{"size": "4"}, {"size": "2"}]}}}, "dtype": {"type": "DT_INT32"}}}, {"name": "PartitionedCall/transpose_55/perm", "op": "Const", "attr": {"dtype": {"type": "DT_INT32"}, "value": {"tensor": {"dtype": "DT_INT32", "tensorShape": {"dim": [{"size": "4"}]}}}}}, {"name": "PartitionedCall/split_18", "op": "Const", "attr": {"value": {"tensor": {"dtype": "DT_FLOAT", "tensorShape": {"dim": [{"size": "3"}, {"size": "3"}, {"size": "64"}, {"size": "64"}]}}}, "dtype": {"type": "DT_FLOAT"}}}, {"name": "unknown_39", "op": "Const", "attr": {"dtype": {"type": "DT_FLOAT"}, "value": {"tensor": {"dtype": "DT_FLOAT", "tensorShape": {"dim": [{"size": "64"}]}}}}}, {"name": "PartitionedCall/transpose_56/perm", "op": "Const", "attr": {"dtype": {"type": "DT_INT32"}, "value": {"tensor": {"dtype": "DT_INT32", "tensorShape": {"dim": [{"size": "4"}]}}}}}, {"name": "PartitionedCall/onnx_tf_prefix_/model.6/Concat/axis", "op": "Const", "attr": {"value": {"tensor": {"dtype": "DT_INT32", "tensorShape": {}}}, "dtype": {"type": "DT_INT32"}}}, {"name": "PartitionedCall/transpose_58/perm", "op": "Const", "attr": {"dtype": {"type": "DT_INT32"}, "value": {"tensor": {"dtype": "DT_INT32", "tensorShape": {"dim": [{"size": "4"}]}}}}}, {"name": "PartitionedCall/split_19", "op": "Const", "attr": {"dtype": {"type": "DT_FLOAT"}, "value": {"tensor": {"dtype": "DT_FLOAT", "tensorShape": {"dim": [{"size": "1"}, {"size": "1"}, {"size": "256"}, {"size": "128"}]}}}}}, {"name": "unknown_41", "op": "Const", "attr": {"value": {"tensor": {"dtype": "DT_FLOAT", "tensorShape": {"dim": [{"size": "128"}]}}}, "dtype": {"type": "DT_FLOAT"}}}, {"name": "PartitionedCall/transpose_59/perm", "op": "Const", "attr": {"dtype": {"type": "DT_INT32"}, "value": {"tensor": {"dtype": "DT_INT32", "tensorShape": {"dim": [{"size": "4"}]}}}}}, {"name": "PartitionedCall/Const_14", "op": "Const", "attr": {"value": {"tensor": {"dtype": "DT_INT32", "tensorShape": {"dim": [{"size": "4"}, {"size": "2"}]}}}, "dtype": {"type": "DT_INT32"}}}, {"name": "PartitionedCall/transpose_61/perm", "op": "Const", "attr": {"value": {"tensor": {"dtype": "DT_INT32", "tensorShape": {"dim": [{"size": "4"}]}}}, "dtype": {"type": "DT_INT32"}}}, {"name": "PartitionedCall/split_20", "op": "Const", "attr": {"value": {"tensor": {"dtype": "DT_FLOAT", "tensorShape": {"dim": [{"size": "3"}, {"size": "3"}, {"size": "128"}, {"size": "256"}]}}}, "dtype": {"type": "DT_FLOAT"}}}, {"name": "unknown_43", "op": "Const", "attr": {"value": {"tensor": {"dtype": "DT_FLOAT", "tensorShape": {"dim": [{"size": "256"}]}}}, "dtype": {"type": "DT_FLOAT"}}}, {"name": "PartitionedCall/transpose_62/perm", "op": "Const", "attr": {"value": {"tensor": {"dtype": "DT_INT32", "tensorShape": {"dim": [{"size": "4"}]}}}, "dtype": {"type": "DT_INT32"}}}, {"name": "PartitionedCall/transpose_64/perm", "op": "Const", "attr": {"dtype": {"type": "DT_INT32"}, "value": {"tensor": {"dtype": "DT_INT32", "tensorShape": {"dim": [{"size": "4"}]}}}}}, {"name": "PartitionedCall/split_21", "op": "Const", "attr": {"dtype": {"type": "DT_FLOAT"}, "value": {"tensor": {"dtype": "DT_FLOAT", "tensorShape": {"dim": [{"size": "1"}, {"size": "1"}, {"size": "256"}, {"size": "256"}]}}}}}, {"name": "unknown_45", "op": "Const", "attr": {"value": {"tensor": {"dtype": "DT_FLOAT", "tensorShape": {"dim": [{"size": "256"}]}}}, "dtype": {"type": "DT_FLOAT"}}}, {"name": "PartitionedCall/transpose_65/perm", "op": "Const", "attr": {"value": {"tensor": {"dtype": "DT_INT32", "tensorShape": {"dim": [{"size": "4"}]}}}, "dtype": {"type": "DT_INT32"}}}, {"name": "PartitionedCall/onnx_tf_prefix_/model.8/Split/split_dim", "op": "Const", "attr": {"dtype": {"type": "DT_INT32"}, "value": {"tensor": {"dtype": "DT_INT32", "tensorShape": {}}}}}, {"name": "PartitionedCall/Const_15", "op": "Const", "attr": {"value": {"tensor": {"dtype": "DT_INT32", "tensorShape": {"dim": [{"size": "4"}, {"size": "2"}]}}}, "dtype": {"type": "DT_INT32"}}}, {"name": "PartitionedCall/transpose_67/perm", "op": "Const", "attr": {"value": {"tensor": {"dtype": "DT_INT32", "tensorShape": {"dim": [{"size": "4"}]}}}, "dtype": {"type": "DT_INT32"}}}, {"name": "PartitionedCall/split_22", "op": "Const", "attr": {"value": {"tensor": {"dtype": "DT_FLOAT", "tensorShape": {"dim": [{"size": "3"}, {"size": "3"}, {"size": "128"}, {"size": "128"}]}}}, "dtype": {"type": "DT_FLOAT"}}}, {"name": "unknown_48", "op": "Const", "attr": {"value": {"tensor": {"dtype": "DT_FLOAT", "tensorShape": {"dim": [{"size": "128"}]}}}, "dtype": {"type": "DT_FLOAT"}}}, {"name": "PartitionedCall/transpose_68/perm", "op": "Const", "attr": {"value": {"tensor": {"dtype": "DT_INT32", "tensorShape": {"dim": [{"size": "4"}]}}}, "dtype": {"type": "DT_INT32"}}}, {"name": "PartitionedCall/Const_16", "op": "Const", "attr": {"value": {"tensor": {"dtype": "DT_INT32", "tensorShape": {"dim": [{"size": "4"}, {"size": "2"}]}}}, "dtype": {"type": "DT_INT32"}}}, {"name": "PartitionedCall/transpose_70/perm", "op": "Const", "attr": {"value": {"tensor": {"dtype": "DT_INT32", "tensorShape": {"dim": [{"size": "4"}]}}}, "dtype": {"type": "DT_INT32"}}}, {"name": "PartitionedCall/split_23", "op": "Const", "attr": {"dtype": {"type": "DT_FLOAT"}, "value": {"tensor": {"dtype": "DT_FLOAT", "tensorShape": {"dim": [{"size": "3"}, {"size": "3"}, {"size": "128"}, {"size": "128"}]}}}}}, {"name": "unknown_50", "op": "Const", "attr": {"value": {"tensor": {"dtype": "DT_FLOAT", "tensorShape": {"dim": [{"size": "128"}]}}}, "dtype": {"type": "DT_FLOAT"}}}, {"name": "PartitionedCall/transpose_71/perm", "op": "Const", "attr": {"value": {"tensor": {"dtype": "DT_INT32", "tensorShape": {"dim": [{"size": "4"}]}}}, "dtype": {"type": "DT_INT32"}}}, {"name": "PartitionedCall/onnx_tf_prefix_/model.8/Concat/axis", "op": "Const", "attr": {"value": {"tensor": {"dtype": "DT_INT32", "tensorShape": {}}}, "dtype": {"type": "DT_INT32"}}}, {"name": "PartitionedCall/transpose_73/perm", "op": "Const", "attr": {"value": {"tensor": {"dtype": "DT_INT32", "tensorShape": {"dim": [{"size": "4"}]}}}, "dtype": {"type": "DT_INT32"}}}, {"name": "PartitionedCall/split_24", "op": "Const", "attr": {"dtype": {"type": "DT_FLOAT"}, "value": {"tensor": {"dtype": "DT_FLOAT", "tensorShape": {"dim": [{"size": "1"}, {"size": "1"}, {"size": "384"}, {"size": "256"}]}}}}}, {"name": "unknown_52", "op": "Const", "attr": {"dtype": {"type": "DT_FLOAT"}, "value": {"tensor": {"dtype": "DT_FLOAT", "tensorShape": {"dim": [{"size": "256"}]}}}}}, {"name": "PartitionedCall/transpose_74/perm", "op": "Const", "attr": {"value": {"tensor": {"dtype": "DT_INT32", "tensorShape": {"dim": [{"size": "4"}]}}}, "dtype": {"type": "DT_INT32"}}}, {"name": "PartitionedCall/transpose_76/perm", "op": "Const", "attr": {"value": {"tensor": {"dtype": "DT_INT32", "tensorShape": {"dim": [{"size": "4"}]}}}, "dtype": {"type": "DT_INT32"}}}, {"name": "PartitionedCall/split_25", "op": "Const", "attr": {"dtype": {"type": "DT_FLOAT"}, "value": {"tensor": {"dtype": "DT_FLOAT", "tensorShape": {"dim": [{"size": "1"}, {"size": "1"}, {"size": "256"}, {"size": "128"}]}}}}}, {"name": "unknown_54", "op": "Const", "attr": {"value": {"tensor": {"dtype": "DT_FLOAT", "tensorShape": {"dim": [{"size": "128"}]}}}, "dtype": {"type": "DT_FLOAT"}}}, {"name": "PartitionedCall/transpose_77/perm", "op": "Const", "attr": {"dtype": {"type": "DT_INT32"}, "value": {"tensor": {"dtype": "DT_INT32", "tensorShape": {"dim": [{"size": "4"}]}}}}}, {"name": "PartitionedCall/transpose_78/perm", "op": "Const", "attr": {"value": {"tensor": {"dtype": "DT_INT32", "tensorShape": {"dim": [{"size": "4"}]}}}, "dtype": {"type": "DT_INT32"}}}, {"name": "PartitionedCall/transpose_83/perm", "op": "Const", "attr": {"value": {"tensor": {"dtype": "DT_INT32", "tensorShape": {"dim": [{"size": "4"}]}}}, "dtype": {"type": "DT_INT32"}}}, {"name": "PartitionedCall/onnx_tf_prefix_/model.9/Concat/axis", "op": "Const", "attr": {"dtype": {"type": "DT_INT32"}, "value": {"tensor": {"dtype": "DT_INT32", "tensorShape": {}}}}}, {"name": "PartitionedCall/transpose_85/perm", "op": "Const", "attr": {"value": {"tensor": {"dtype": "DT_INT32", "tensorShape": {"dim": [{"size": "4"}]}}}, "dtype": {"type": "DT_INT32"}}}, {"name": "PartitionedCall/split_26", "op": "Const", "attr": {"value": {"tensor": {"dtype": "DT_FLOAT", "tensorShape": {"dim": [{"size": "1"}, {"size": "1"}, {"size": "512"}, {"size": "256"}]}}}, "dtype": {"type": "DT_FLOAT"}}}, {"name": "unknown_56", "op": "Const", "attr": {"value": {"tensor": {"dtype": "DT_FLOAT", "tensorShape": {"dim": [{"size": "256"}]}}}, "dtype": {"type": "DT_FLOAT"}}}, {"name": "PartitionedCall/transpose_86/perm", "op": "Const", "attr": {"value": {"tensor": {"dtype": "DT_INT32", "tensorShape": {"dim": [{"size": "4"}]}}}, "dtype": {"type": "DT_INT32"}}}, {"name": "PartitionedCall/onnx_tf_prefix_/model.20/Concat/axis", "op": "Const", "attr": {"value": {"tensor": {"dtype": "DT_INT32", "tensorShape": {}}}, "dtype": {"type": "DT_INT32"}}}, {"name": "PartitionedCall/transpose_164/perm", "op": "Const", "attr": {"value": {"tensor": {"dtype": "DT_INT32", "tensorShape": {"dim": [{"size": "4"}]}}}, "dtype": {"type": "DT_INT32"}}}, {"name": "PartitionedCall/split_51", "op": "Const", "attr": {"value": {"tensor": {"dtype": "DT_FLOAT", "tensorShape": {"dim": [{"size": "1"}, {"size": "1"}, {"size": "384"}, {"size": "256"}]}}}, "dtype": {"type": "DT_FLOAT"}}}, {"name": "unknown_108", "op": "Const", "attr": {"value": {"tensor": {"dtype": "DT_FLOAT", "tensorShape": {"dim": [{"size": "256"}]}}}, "dtype": {"type": "DT_FLOAT"}}}, {"name": "PartitionedCall/transpose_165/perm", "op": "Const", "attr": {"dtype": {"type": "DT_INT32"}, "value": {"tensor": {"dtype": "DT_INT32", "tensorShape": {"dim": [{"size": "4"}]}}}}}, {"name": "unknown_46", "op": "Const", "attr": {"value": {"tensor": {"dtype": "DT_INT64", "tensorShape": {"dim": [{"size": "2"}]}}}, "dtype": {"type": "DT_INT64"}}}, {"name": "PartitionedCall/onnx_tf_prefix_/model.21/Split/split_dim", "op": "Const", "attr": {"value": {"tensor": {"dtype": "DT_INT32", "tensorShape": {}}}, "dtype": {"type": "DT_INT32"}}}, {"name": "PartitionedCall/Const_36", "op": "Const", "attr": {"dtype": {"type": "DT_INT32"}, "value": {"tensor": {"dtype": "DT_INT32", "tensorShape": {"dim": [{"size": "4"}, {"size": "2"}]}}}}}, {"name": "PartitionedCall/transpose_173/perm", "op": "Const", "attr": {"value": {"tensor": {"dtype": "DT_INT32", "tensorShape": {"dim": [{"size": "4"}]}}}, "dtype": {"type": "DT_INT32"}}}, {"name": "PartitionedCall/split_54", "op": "Const", "attr": {"value": {"tensor": {"dtype": "DT_FLOAT", "tensorShape": {"dim": [{"size": "3"}, {"size": "3"}, {"size": "128"}, {"size": "128"}]}}}, "dtype": {"type": "DT_FLOAT"}}}, {"name": "unknown_114", "op": "Const", "attr": {"value": {"tensor": {"dtype": "DT_FLOAT", "tensorShape": {"dim": [{"size": "128"}]}}}, "dtype": {"type": "DT_FLOAT"}}}, {"name": "PartitionedCall/transpose_174/perm", "op": "Const", "attr": {"value": {"tensor": {"dtype": "DT_INT32", "tensorShape": {"dim": [{"size": "4"}]}}}, "dtype": {"type": "DT_INT32"}}}, {"name": "PartitionedCall/Const_38", "op": "Const", "attr": {"value": {"tensor": {"dtype": "DT_INT32", "tensorShape": {"dim": [{"size": "4"}, {"size": "2"}]}}}, "dtype": {"type": "DT_INT32"}}}, {"name": "PartitionedCall/transpose_176/perm", "op": "Const", "attr": {"value": {"tensor": {"dtype": "DT_INT32", "tensorShape": {"dim": [{"size": "4"}]}}}, "dtype": {"type": "DT_INT32"}}}, {"name": "PartitionedCall/split_55", "op": "Const", "attr": {"dtype": {"type": "DT_FLOAT"}, "value": {"tensor": {"dtype": "DT_FLOAT", "tensorShape": {"dim": [{"size": "3"}, {"size": "3"}, {"size": "128"}, {"size": "128"}]}}}}}, {"name": "unknown_116", "op": "Const", "attr": {"value": {"tensor": {"dtype": "DT_FLOAT", "tensorShape": {"dim": [{"size": "128"}]}}}, "dtype": {"type": "DT_FLOAT"}}}, {"name": "PartitionedCall/transpose_177/perm", "op": "Const", "attr": {"value": {"tensor": {"dtype": "DT_INT32", "tensorShape": {"dim": [{"size": "4"}]}}}, "dtype": {"type": "DT_INT32"}}}, {"name": "PartitionedCall/onnx_tf_prefix_/model.21/Concat/axis", "op": "Const", "attr": {"value": {"tensor": {"dtype": "DT_INT32", "tensorShape": {}}}, "dtype": {"type": "DT_INT32"}}}, {"name": "PartitionedCall/transpose_179/perm", "op": "Const", "attr": {"value": {"tensor": {"dtype": "DT_INT32", "tensorShape": {"dim": [{"size": "4"}]}}}, "dtype": {"type": "DT_INT32"}}}, {"name": "PartitionedCall/split_56", "op": "Const", "attr": {"value": {"tensor": {"dtype": "DT_FLOAT", "tensorShape": {"dim": [{"size": "1"}, {"size": "1"}, {"size": "384"}, {"size": "256"}]}}}, "dtype": {"type": "DT_FLOAT"}}}, {"name": "unknown_118", "op": "Const", "attr": {"dtype": {"type": "DT_FLOAT"}, "value": {"tensor": {"dtype": "DT_FLOAT", "tensorShape": {"dim": [{"size": "256"}]}}}}}, {"name": "PartitionedCall/transpose_180/perm", "op": "Const", "attr": {"value": {"tensor": {"dtype": "DT_INT32", "tensorShape": {"dim": [{"size": "4"}]}}}, "dtype": {"type": "DT_INT32"}}}, {"name": "PartitionedCall/Const_40", "op": "Const", "attr": {"value": {"tensor": {"dtype": "DT_INT32", "tensorShape": {"dim": [{"size": "4"}, {"size": "2"}]}}}, "dtype": {"type": "DT_INT32"}}}, {"name": "PartitionedCall/transpose_185/perm", "op": "Const", "attr": {"value": {"tensor": {"dtype": "DT_INT32", "tensorShape": {"dim": [{"size": "4"}]}}}, "dtype": {"type": "DT_INT32"}}}, {"name": "PartitionedCall/split_58", "op": "Const", "attr": {"value": {"tensor": {"dtype": "DT_FLOAT", "tensorShape": {"dim": [{"size": "3"}, {"size": "3"}, {"size": "256"}, {"size": "64"}]}}}, "dtype": {"type": "DT_FLOAT"}}}, {"name": "unknown_122", "op": "Const", "attr": {"value": {"tensor": {"dtype": "DT_FLOAT", "tensorShape": {"dim": [{"size": "64"}]}}}, "dtype": {"type": "DT_FLOAT"}}}, {"name": "PartitionedCall/transpose_186/perm", "op": "Const", "attr": {"dtype": {"type": "DT_INT32"}, "value": {"tensor": {"dtype": "DT_INT32", "tensorShape": {"dim": [{"size": "4"}]}}}}}, {"name": "PartitionedCall/Const_42", "op": "Const", "attr": {"value": {"tensor": {"dtype": "DT_INT32", "tensorShape": {"dim": [{"size": "4"}, {"size": "2"}]}}}, "dtype": {"type": "DT_INT32"}}}, {"name": "PartitionedCall/transpose_191/perm", "op": "Const", "attr": {"value": {"tensor": {"dtype": "DT_INT32", "tensorShape": {"dim": [{"size": "4"}]}}}, "dtype": {"type": "DT_INT32"}}}, {"name": "PartitionedCall/split_60", "op": "Const", "attr": {"value": {"tensor": {"dtype": "DT_FLOAT", "tensorShape": {"dim": [{"size": "3"}, {"size": "3"}, {"size": "64"}, {"size": "64"}]}}}, "dtype": {"type": "DT_FLOAT"}}}, {"name": "unknown_126", "op": "Const", "attr": {"dtype": {"type": "DT_FLOAT"}, "value": {"tensor": {"dtype": "DT_FLOAT", "tensorShape": {"dim": [{"size": "64"}]}}}}}, {"name": "PartitionedCall/transpose_192/perm", "op": "Const", "attr": {"value": {"tensor": {"dtype": "DT_INT32", "tensorShape": {"dim": [{"size": "4"}]}}}, "dtype": {"type": "DT_INT32"}}}, {"name": "PartitionedCall/transpose_197/perm", "op": "Const", "attr": {"value": {"tensor": {"dtype": "DT_INT32", "tensorShape": {"dim": [{"size": "4"}]}}}, "dtype": {"type": "DT_INT32"}}}, {"name": "PartitionedCall/split_62", "op": "Const", "attr": {"value": {"tensor": {"dtype": "DT_FLOAT", "tensorShape": {"dim": [{"size": "1"}, {"size": "1"}, {"size": "64"}, {"size": "6"}]}}}, "dtype": {"type": "DT_FLOAT"}}}, {"name": "unknown_130", "op": "Const", "attr": {"value": {"tensor": {"dtype": "DT_FLOAT", "tensorShape": {"dim": [{"size": "6"}]}}}, "dtype": {"type": "DT_FLOAT"}}}, {"name": "PartitionedCall/transpose_198/perm", "op": "Const", "attr": {"value": {"tensor": {"dtype": "DT_INT32", "tensorShape": {"dim": [{"size": "4"}]}}}, "dtype": {"type": "DT_INT32"}}}, {"name": "PartitionedCall/onnx_tf_prefix_/model.22/Concat_2/axis", "op": "Const", "attr": {"dtype": {"type": "DT_INT32"}, "value": {"tensor": {"dtype": "DT_INT32", "tensorShape": {}}}}}, {"name": "unknown_92", "op": "Const", "attr": {"dtype": {"type": "DT_INT64"}, "value": {"tensor": {"dtype": "DT_INT64", "tensorShape": {"dim": [{"size": "3"}]}}}}}, {"name": "PartitionedCall/Where_2", "op": "Const", "attr": {"value": {"tensor": {"dtype": "DT_INT64", "tensorShape": {"dim": [{}, {"size": "1"}]}}}, "dtype": {"type": "DT_INT64"}}}, {"name": "PartitionedCall/Cast_6", "op": "Const", "attr": {"value": {"tensor": {"dtype": "DT_INT64", "tensorShape": {"dim": [{"size": "1"}]}}}, "dtype": {"type": "DT_INT64"}}}, {"name": "PartitionedCall/GatherV2_2", "op": "Const", "attr": {"value": {"tensor": {"dtype": "DT_INT64", "tensorShape": {"dim": [{}]}}}, "dtype": {"type": "DT_INT64"}}}, {"name": "PartitionedCall/zeros_2", "op": "Const", "attr": {"value": {"tensor": {"dtype": "DT_INT64", "tensorShape": {}}}, "dtype": {"type": "DT_INT64"}}}, {"name": "PartitionedCall/onnx_tf_prefix_/model.22/Concat_3/axis", "op": "Const", "attr": {"value": {"tensor": {"dtype": "DT_INT32", "tensorShape": {}}}, "dtype": {"type": "DT_INT32"}}}, {"name": "unknown_131", "op": "Const", "attr": {"value": {"tensor": {"dtype": "DT_INT64", "tensorShape": {"dim": [{"size": "2"}]}}}, "dtype": {"type": "DT_INT64"}}}, {"name": "PartitionedCall/onnx_tf_prefix_/model.22/Split/split_dim", "op": "Const", "attr": {"value": {"tensor": {"dtype": "DT_INT32", "tensorShape": {}}}, "dtype": {"type": "DT_INT32"}}}, {"name": "PartitionedCall/onnx_tf_prefix_/model.22/Concat_5/axis", "op": "Const", "attr": {"dtype": {"type": "DT_INT32"}, "value": {"tensor": {"dtype": "DT_INT32", "tensorShape": {}}}}}, {"name": "images", "op": "Placeholder", "attr": {"shape": {"shape": {"dim": [{"size": "1"}, {"size": "3"}, {"size": "416"}, {"size": "416"}]}}, "dtype": {"type": "DT_FLOAT"}}}, {"name": "PartitionedCall/SparseToDense_7", "op": "SparseToDense", "input": ["PartitionedCall/ExpandDims_1", "PartitionedCall/Cast_12", "PartitionedCall/SelectV2_5", "PartitionedCall/zeros_6"], "attr": {"T": {"type": "DT_INT64"}, "Tindices": {"type": "DT_INT64"}, "validate_indices": {"b": true}}}, {"name": "PartitionedCall/SparseToDense_8", "op": "SparseToDense", "input": ["PartitionedCall/ExpandDims_1", "PartitionedCall/Cast_12", "PartitionedCall/SelectV2_6", "PartitionedCall/Const_48"], "attr": {"Tindices": {"type": "DT_INT64"}, "T": {"type": "DT_INT64"}, "validate_indices": {"b": true}}}, {"name": "PartitionedCall/SparseToDense_3", "op": "SparseToDense", "input": ["PartitionedCall/Where_3", "PartitionedCall/Cast_7", "PartitionedCall/GatherV2_3", "PartitionedCall/zeros_3"], "attr": {"Tindices": {"type": "DT_INT64"}, "T": {"type": "DT_INT64"}, "validate_indices": {"b": true}}}, {"name": "PartitionedCall/SparseToDense_4", "op": "SparseToDense", "input": ["PartitionedCall/Where_4", "PartitionedCall/Cast_8", "PartitionedCall/GatherV2_4", "PartitionedCall/zeros_4"], "attr": {"validate_indices": {"b": true}, "T": {"type": "DT_INT64"}, "Tindices": {"type": "DT_INT64"}}}, {"name": "PartitionedCall/SparseToDense_5", "op": "SparseToDense", "input": ["PartitionedCall/ExpandDims", "PartitionedCall/Cast_10", "PartitionedCall/SelectV2_1", "PartitionedCall/zeros_5"], "attr": {"validate_indices": {"b": true}, "Tindices": {"type": "DT_INT64"}, "T": {"type": "DT_INT64"}}}, {"name": "PartitionedCall/SparseToDense_6", "op": "SparseToDense", "input": ["PartitionedCall/ExpandDims", "PartitionedCall/Cast_10", "PartitionedCall/SelectV2_2", "PartitionedCall/Const_46"], "attr": {"T": {"type": "DT_INT64"}, "Tindices": {"type": "DT_INT64"}, "validate_indices": {"b": true}}}, {"name": "PartitionedCall/SparseToDense", "op": "SparseToDense", "input": ["PartitionedCall/Where", "PartitionedCall/Cast_4", "PartitionedCall/GatherV2", "PartitionedCall/zeros"], "attr": {"Tindices": {"type": "DT_INT64"}, "validate_indices": {"b": true}, "T": {"type": "DT_INT64"}}}, {"name": "PartitionedCall/SparseToDense_1", "op": "SparseToDense", "input": ["PartitionedCall/Where_1", "PartitionedCall/Cast_5", "PartitionedCall/GatherV2_1", "PartitionedCall/zeros_1"], "attr": {"T": {"type": "DT_INT64"}, "validate_indices": {"b": true}, "Tindices": {"type": "DT_INT64"}}}, {"name": "PartitionedCall/SparseToDense_2", "op": "SparseToDense", "input": ["PartitionedCall/Where_2", "PartitionedCall/Cast_6", "PartitionedCall/GatherV2_2", "PartitionedCall/zeros_2"], "attr": {"T": {"type": "DT_INT64"}, "validate_indices": {"b": true}, "Tindices": {"type": "DT_INT64"}}}, {"name": "PartitionedCall/Pad", "op": "Pad", "input": ["images", "PartitionedCall/Const"], "attr": {"Tpaddings": {"type": "DT_INT32"}, "T": {"type": "DT_FLOAT"}}}, {"name": "PartitionedCall/Equal_6", "op": "Equal", "input": ["PartitionedCall/SparseToDense_8", "PartitionedCall/Const_49"], "attr": {"T": {"type": "DT_INT64"}, "incompatible_shape_error": {"b": true}}}, {"name": "PartitionedCall/add_66", "op": "AddV2", "input": ["unknown_132", "PartitionedCall/SparseToDense_3"], "attr": {"T": {"type": "DT_INT64"}}}, {"name": "PartitionedCall/add_67", "op": "AddV2", "input": ["unknown_134", "PartitionedCall/SparseToDense_4"], "attr": {"T": {"type": "DT_INT64"}}}, {"name": "PartitionedCall/Equal_5", "op": "Equal", "input": ["PartitionedCall/SparseToDense_6", "PartitionedCall/Const_47"], "attr": {"incompatible_shape_error": {"b": true}, "T": {"type": "DT_INT64"}}}, {"name": "PartitionedCall/add_44", "op": "AddV2", "input": ["unknown_92", "PartitionedCall/SparseToDense"], "attr": {"T": {"type": "DT_INT64"}}}, {"name": "PartitionedCall/add_56", "op": "AddV2", "input": ["unknown_92", "PartitionedCall/SparseToDense_1"], "attr": {"T": {"type": "DT_INT64"}}}, {"name": "PartitionedCall/add_65", "op": "AddV2", "input": ["unknown_92", "PartitionedCall/SparseToDense_2"], "attr": {"T": {"type": "DT_INT64"}}}, {"name": "PartitionedCall/transpose_1", "op": "Transpose", "input": ["PartitionedCall/Pad", "PartitionedCall/transpose_1/perm"], "attr": {"T": {"type": "DT_FLOAT"}, "Tperm": {"type": "DT_INT32"}}}, {"name": "PartitionedCall/SelectV2_7", "op": "SelectV2", "input": ["PartitionedCall/Equal_6", "PartitionedCall/Shape_11", "PartitionedCall/SparseToDense_8"], "attr": {"T": {"type": "DT_INT64"}}}, {"name": "PartitionedCall/SelectV2_3", "op": "SelectV2", "input": ["PartitionedCall/Equal_5", "PartitionedCall/Shape_10", "PartitionedCall/SparseToDense_6"], "attr": {"T": {"type": "DT_INT64"}}}, {"name": "PartitionedCall/convolution", "op": "Conv2D", "input": ["PartitionedCall/transpose_1", "PartitionedCall/split"], "device": "/device:CPU:0", "attr": {"dilations": {"list": {"i": ["1", "1", "1", "1"]}}, "data_format": {"s": "TkhXQw=="}, "strides": {"list": {"i": ["1", "2", "2", "1"]}}, "explicit_paddings": {"list": {}}, "use_cudnn_on_gpu": {"b": true}, "T": {"type": "DT_FLOAT"}, "padding": {"s": "VkFMSUQ="}}}, {"name": "PartitionedCall/Add", "op": "AddV2", "input": ["PartitionedCall/convolution", "unknown_0"], "attr": {"T": {"type": "DT_FLOAT"}}}, {"name": "PartitionedCall/transpose_2", "op": "Transpose", "input": ["PartitionedCall/Add", "PartitionedCall/transpose_2/perm"], "attr": {"T": {"type": "DT_FLOAT"}, "Tperm": {"type": "DT_INT32"}}}, {"name": "PartitionedCall/onnx_tf_prefix_/model.0/act/Sigmoid", "op": "Sigmoid", "input": ["PartitionedCall/transpose_2"], "attr": {"T": {"type": "DT_FLOAT"}}}, {"name": "PartitionedCall/onnx_tf_prefix_/model.0/act/Mul", "op": "Mul", "input": ["PartitionedCall/transpose_2", "PartitionedCall/onnx_tf_prefix_/model.0/act/Sigmoid"], "attr": {"T": {"type": "DT_FLOAT"}}}, {"name": "PartitionedCall/Pad_1", "op": "Pad", "input": ["PartitionedCall/onnx_tf_prefix_/model.0/act/Mul", "PartitionedCall/Const_1"], "attr": {"Tpaddings": {"type": "DT_INT32"}, "T": {"type": "DT_FLOAT"}}}, {"name": "PartitionedCall/transpose_4", "op": "Transpose", "input": ["PartitionedCall/Pad_1", "PartitionedCall/transpose_4/perm"], "attr": {"Tperm": {"type": "DT_INT32"}, "T": {"type": "DT_FLOAT"}}}, {"name": "PartitionedCall/convolution_1", "op": "Conv2D", "input": ["PartitionedCall/transpose_4", "PartitionedCall/split_1"], "device": "/device:CPU:0", "attr": {"T": {"type": "DT_FLOAT"}, "padding": {"s": "VkFMSUQ="}, "strides": {"list": {"i": ["1", "2", "2", "1"]}}, "explicit_paddings": {"list": {}}, "dilations": {"list": {"i": ["1", "1", "1", "1"]}}, "use_cudnn_on_gpu": {"b": true}, "data_format": {"s": "TkhXQw=="}}}, {"name": "PartitionedCall/Add_1", "op": "AddV2", "input": ["PartitionedCall/convolution_1", "unknown_2"], "attr": {"T": {"type": "DT_FLOAT"}}}, {"name": "PartitionedCall/transpose_5", "op": "Transpose", "input": ["PartitionedCall/Add_1", "PartitionedCall/transpose_5/perm"], "attr": {"Tperm": {"type": "DT_INT32"}, "T": {"type": "DT_FLOAT"}}}, {"name": "PartitionedCall/onnx_tf_prefix_/model.1/act/Sigmoid", "op": "Sigmoid", "input": ["PartitionedCall/transpose_5"], "attr": {"T": {"type": "DT_FLOAT"}}}, {"name": "PartitionedCall/onnx_tf_prefix_/model.1/act/Mul", "op": "Mul", "input": ["PartitionedCall/transpose_5", "PartitionedCall/onnx_tf_prefix_/model.1/act/Sigmoid"], "attr": {"T": {"type": "DT_FLOAT"}}}, {"name": "PartitionedCall/transpose_7", "op": "Transpose", "input": ["PartitionedCall/onnx_tf_prefix_/model.1/act/Mul", "PartitionedCall/transpose_7/perm"], "attr": {"Tperm": {"type": "DT_INT32"}, "T": {"type": "DT_FLOAT"}}}, {"name": "PartitionedCall/convolution_2", "op": "Conv2D", "input": ["PartitionedCall/transpose_7", "PartitionedCall/split_2"], "device": "/device:CPU:0", "attr": {"T": {"type": "DT_FLOAT"}, "padding": {"s": "VkFMSUQ="}, "strides": {"list": {"i": ["1", "1", "1", "1"]}}, "explicit_paddings": {"list": {}}, "use_cudnn_on_gpu": {"b": true}, "dilations": {"list": {"i": ["1", "1", "1", "1"]}}, "data_format": {"s": "TkhXQw=="}}}, {"name": "PartitionedCall/Add_2", "op": "AddV2", "input": ["PartitionedCall/convolution_2", "unknown_4"], "attr": {"T": {"type": "DT_FLOAT"}}}, {"name": "PartitionedCall/transpose_8", "op": "Transpose", "input": ["PartitionedCall/Add_2", "PartitionedCall/transpose_8/perm"], "attr": {"Tperm": {"type": "DT_INT32"}, "T": {"type": "DT_FLOAT"}}}, {"name": "PartitionedCall/onnx_tf_prefix_/model.2/cv1/act/Sigmoid", "op": "Sigmoid", "input": ["PartitionedCall/transpose_8"], "attr": {"T": {"type": "DT_FLOAT"}}}, {"name": "PartitionedCall/onnx_tf_prefix_/model.2/cv1/act/Mul", "op": "Mul", "input": ["PartitionedCall/transpose_8", "PartitionedCall/onnx_tf_prefix_/model.2/cv1/act/Sigmoid"], "attr": {"T": {"type": "DT_FLOAT"}}}, {"name": "PartitionedCall/onnx_tf_prefix_/model.2/Split", "op": "SplitV", "input": ["PartitionedCall/onnx_tf_prefix_/model.2/cv1/act/Mul", "unknown_5", "PartitionedCall/onnx_tf_prefix_/model.2/Split/split_dim"], "attr": {"Tlen": {"type": "DT_INT64"}, "T": {"type": "DT_FLOAT"}, "num_split": {"i": "2"}}}, {"name": "PartitionedCall/Pad_2", "op": "Pad", "input": ["PartitionedCall/onnx_tf_prefix_/model.2/Split:1", "PartitionedCall/Const_2"], "attr": {"T": {"type": "DT_FLOAT"}, "Tpaddings": {"type": "DT_INT32"}}}, {"name": "PartitionedCall/transpose_10", "op": "Transpose", "input": ["PartitionedCall/Pad_2", "PartitionedCall/transpose_10/perm"], "attr": {"T": {"type": "DT_FLOAT"}, "Tperm": {"type": "DT_INT32"}}}, {"name": "PartitionedCall/convolution_3", "op": "Conv2D", "input": ["PartitionedCall/transpose_10", "PartitionedCall/split_3"], "device": "/device:CPU:0", "attr": {"strides": {"list": {"i": ["1", "1", "1", "1"]}}, "explicit_paddings": {"list": {}}, "padding": {"s": "VkFMSUQ="}, "dilations": {"list": {"i": ["1", "1", "1", "1"]}}, "T": {"type": "DT_FLOAT"}, "use_cudnn_on_gpu": {"b": true}, "data_format": {"s": "TkhXQw=="}}}, {"name": "PartitionedCall/Add_3", "op": "AddV2", "input": ["PartitionedCall/convolution_3", "unknown_7"], "attr": {"T": {"type": "DT_FLOAT"}}}, {"name": "PartitionedCall/transpose_11", "op": "Transpose", "input": ["PartitionedCall/Add_3", "PartitionedCall/transpose_11/perm"], "attr": {"Tperm": {"type": "DT_INT32"}, "T": {"type": "DT_FLOAT"}}}, {"name": "PartitionedCall/onnx_tf_prefix_/model.2/m.0/cv1/act/Sigmoid", "op": "Sigmoid", "input": ["PartitionedCall/transpose_11"], "attr": {"T": {"type": "DT_FLOAT"}}}, {"name": "PartitionedCall/onnx_tf_prefix_/model.2/m.0/cv1/act/Mul", "op": "Mul", "input": ["PartitionedCall/transpose_11", "PartitionedCall/onnx_tf_prefix_/model.2/m.0/cv1/act/Sigmoid"], "attr": {"T": {"type": "DT_FLOAT"}}}, {"name": "PartitionedCall/Pad_3", "op": "Pad", "input": ["PartitionedCall/onnx_tf_prefix_/model.2/m.0/cv1/act/Mul", "PartitionedCall/Const_3"], "attr": {"Tpaddings": {"type": "DT_INT32"}, "T": {"type": "DT_FLOAT"}}}, {"name": "PartitionedCall/transpose_13", "op": "Transpose", "input": ["PartitionedCall/Pad_3", "PartitionedCall/transpose_13/perm"], "attr": {"Tperm": {"type": "DT_INT32"}, "T": {"type": "DT_FLOAT"}}}, {"name": "PartitionedCall/convolution_4", "op": "Conv2D", "input": ["PartitionedCall/transpose_13", "PartitionedCall/split_4"], "device": "/device:CPU:0", "attr": {"dilations": {"list": {"i": ["1", "1", "1", "1"]}}, "strides": {"list": {"i": ["1", "1", "1", "1"]}}, "data_format": {"s": "TkhXQw=="}, "explicit_paddings": {"list": {}}, "T": {"type": "DT_FLOAT"}, "use_cudnn_on_gpu": {"b": true}, "padding": {"s": "VkFMSUQ="}}}, {"name": "PartitionedCall/Add_4", "op": "AddV2", "input": ["PartitionedCall/convolution_4", "unknown_9"], "attr": {"T": {"type": "DT_FLOAT"}}}, {"name": "PartitionedCall/transpose_14", "op": "Transpose", "input": ["PartitionedCall/Add_4", "PartitionedCall/transpose_14/perm"], "attr": {"Tperm": {"type": "DT_INT32"}, "T": {"type": "DT_FLOAT"}}}, {"name": "PartitionedCall/onnx_tf_prefix_/model.2/m.0/cv2/act/Sigmoid", "op": "Sigmoid", "input": ["PartitionedCall/transpose_14"], "attr": {"T": {"type": "DT_FLOAT"}}}, {"name": "PartitionedCall/onnx_tf_prefix_/model.2/m.0/cv2/act/Mul", "op": "Mul", "input": ["PartitionedCall/transpose_14", "PartitionedCall/onnx_tf_prefix_/model.2/m.0/cv2/act/Sigmoid"], "attr": {"T": {"type": "DT_FLOAT"}}}, {"name": "PartitionedCall/onnx_tf_prefix_/model.2/m.0/Add", "op": "AddV2", "input": ["PartitionedCall/onnx_tf_prefix_/model.2/Split:1", "PartitionedCall/onnx_tf_prefix_/model.2/m.0/cv2/act/Mul"], "attr": {"T": {"type": "DT_FLOAT"}}}, {"name": "PartitionedCall/onnx_tf_prefix_/model.2/Concat", "op": "ConcatV2", "input": ["PartitionedCall/onnx_tf_prefix_/model.2/Split", "PartitionedCall/onnx_tf_prefix_/model.2/Split:1", "PartitionedCall/onnx_tf_prefix_/model.2/m.0/Add", "PartitionedCall/onnx_tf_prefix_/model.2/Concat/axis"], "attr": {"Tidx": {"type": "DT_INT32"}, "T": {"type": "DT_FLOAT"}, "N": {"i": "3"}}}, {"name": "PartitionedCall/transpose_16", "op": "Transpose", "input": ["PartitionedCall/onnx_tf_prefix_/model.2/Concat", "PartitionedCall/transpose_16/perm"], "attr": {"T": {"type": "DT_FLOAT"}, "Tperm": {"type": "DT_INT32"}}}, {"name": "PartitionedCall/convolution_5", "op": "Conv2D", "input": ["PartitionedCall/transpose_16", "PartitionedCall/split_5"], "device": "/device:CPU:0", "attr": {"explicit_paddings": {"list": {}}, "strides": {"list": {"i": ["1", "1", "1", "1"]}}, "dilations": {"list": {"i": ["1", "1", "1", "1"]}}, "use_cudnn_on_gpu": {"b": true}, "T": {"type": "DT_FLOAT"}, "data_format": {"s": "TkhXQw=="}, "padding": {"s": "VkFMSUQ="}}}, {"name": "PartitionedCall/Add_5", "op": "AddV2", "input": ["PartitionedCall/convolution_5", "unknown_11"], "attr": {"T": {"type": "DT_FLOAT"}}}, {"name": "PartitionedCall/transpose_17", "op": "Transpose", "input": ["PartitionedCall/Add_5", "PartitionedCall/transpose_17/perm"], "attr": {"Tperm": {"type": "DT_INT32"}, "T": {"type": "DT_FLOAT"}}}, {"name": "PartitionedCall/onnx_tf_prefix_/model.2/cv2/act/Sigmoid", "op": "Sigmoid", "input": ["PartitionedCall/transpose_17"], "attr": {"T": {"type": "DT_FLOAT"}}}, {"name": "PartitionedCall/onnx_tf_prefix_/model.2/cv2/act/Mul", "op": "Mul", "input": ["PartitionedCall/transpose_17", "PartitionedCall/onnx_tf_prefix_/model.2/cv2/act/Sigmoid"], "attr": {"T": {"type": "DT_FLOAT"}}}, {"name": "PartitionedCall/Pad_4", "op": "Pad", "input": ["PartitionedCall/onnx_tf_prefix_/model.2/cv2/act/Mul", "PartitionedCall/Const_4"], "attr": {"Tpaddings": {"type": "DT_INT32"}, "T": {"type": "DT_FLOAT"}}}, {"name": "PartitionedCall/transpose_19", "op": "Transpose", "input": ["PartitionedCall/Pad_4", "PartitionedCall/transpose_19/perm"], "attr": {"Tperm": {"type": "DT_INT32"}, "T": {"type": "DT_FLOAT"}}}, {"name": "PartitionedCall/convolution_6", "op": "Conv2D", "input": ["PartitionedCall/transpose_19", "PartitionedCall/split_6"], "device": "/device:CPU:0", "attr": {"explicit_paddings": {"list": {}}, "use_cudnn_on_gpu": {"b": true}, "dilations": {"list": {"i": ["1", "1", "1", "1"]}}, "data_format": {"s": "TkhXQw=="}, "T": {"type": "DT_FLOAT"}, "strides": {"list": {"i": ["1", "2", "2", "1"]}}, "padding": {"s": "VkFMSUQ="}}}, {"name": "PartitionedCall/Add_6", "op": "AddV2", "input": ["PartitionedCall/convolution_6", "unknown_13"], "attr": {"T": {"type": "DT_FLOAT"}}}, {"name": "PartitionedCall/transpose_20", "op": "Transpose", "input": ["PartitionedCall/Add_6", "PartitionedCall/transpose_20/perm"], "attr": {"Tperm": {"type": "DT_INT32"}, "T": {"type": "DT_FLOAT"}}}, {"name": "PartitionedCall/onnx_tf_prefix_/model.3/act/Sigmoid", "op": "Sigmoid", "input": ["PartitionedCall/transpose_20"], "attr": {"T": {"type": "DT_FLOAT"}}}, {"name": "PartitionedCall/onnx_tf_prefix_/model.3/act/Mul", "op": "Mul", "input": ["PartitionedCall/transpose_20", "PartitionedCall/onnx_tf_prefix_/model.3/act/Sigmoid"], "attr": {"T": {"type": "DT_FLOAT"}}}, {"name": "PartitionedCall/transpose_22", "op": "Transpose", "input": ["PartitionedCall/onnx_tf_prefix_/model.3/act/Mul", "PartitionedCall/transpose_22/perm"], "attr": {"T": {"type": "DT_FLOAT"}, "Tperm": {"type": "DT_INT32"}}}, {"name": "PartitionedCall/convolution_7", "op": "Conv2D", "input": ["PartitionedCall/transpose_22", "PartitionedCall/split_7"], "device": "/device:CPU:0", "attr": {"strides": {"list": {"i": ["1", "1", "1", "1"]}}, "T": {"type": "DT_FLOAT"}, "padding": {"s": "VkFMSUQ="}, "explicit_paddings": {"list": {}}, "dilations": {"list": {"i": ["1", "1", "1", "1"]}}, "use_cudnn_on_gpu": {"b": true}, "data_format": {"s": "TkhXQw=="}}}, {"name": "PartitionedCall/Add_7", "op": "AddV2", "input": ["PartitionedCall/convolution_7", "unknown_15"], "attr": {"T": {"type": "DT_FLOAT"}}}, {"name": "PartitionedCall/transpose_23", "op": "Transpose", "input": ["PartitionedCall/Add_7", "PartitionedCall/transpose_23/perm"], "attr": {"T": {"type": "DT_FLOAT"}, "Tperm": {"type": "DT_INT32"}}}, {"name": "PartitionedCall/onnx_tf_prefix_/model.4/cv1/act/Sigmoid", "op": "Sigmoid", "input": ["PartitionedCall/transpose_23"], "attr": {"T": {"type": "DT_FLOAT"}}}, {"name": "PartitionedCall/onnx_tf_prefix_/model.4/cv1/act/Mul", "op": "Mul", "input": ["PartitionedCall/transpose_23", "PartitionedCall/onnx_tf_prefix_/model.4/cv1/act/Sigmoid"], "attr": {"T": {"type": "DT_FLOAT"}}}, {"name": "PartitionedCall/onnx_tf_prefix_/model.4/Split", "op": "SplitV", "input": ["PartitionedCall/onnx_tf_prefix_/model.4/cv1/act/Mul", "unknown_16", "PartitionedCall/onnx_tf_prefix_/model.4/Split/split_dim"], "attr": {"num_split": {"i": "2"}, "T": {"type": "DT_FLOAT"}, "Tlen": {"type": "DT_INT64"}}}, {"name": "PartitionedCall/Pad_5", "op": "Pad", "input": ["PartitionedCall/onnx_tf_prefix_/model.4/Split:1", "PartitionedCall/Const_5"], "attr": {"T": {"type": "DT_FLOAT"}, "Tpaddings": {"type": "DT_INT32"}}}, {"name": "PartitionedCall/transpose_25", "op": "Transpose", "input": ["PartitionedCall/Pad_5", "PartitionedCall/transpose_25/perm"], "attr": {"T": {"type": "DT_FLOAT"}, "Tperm": {"type": "DT_INT32"}}}, {"name": "PartitionedCall/convolution_8", "op": "Conv2D", "input": ["PartitionedCall/transpose_25", "PartitionedCall/split_8"], "device": "/device:CPU:0", "attr": {"data_format": {"s": "TkhXQw=="}, "padding": {"s": "VkFMSUQ="}, "strides": {"list": {"i": ["1", "1", "1", "1"]}}, "explicit_paddings": {"list": {}}, "T": {"type": "DT_FLOAT"}, "use_cudnn_on_gpu": {"b": true}, "dilations": {"list": {"i": ["1", "1", "1", "1"]}}}}, {"name": "PartitionedCall/Add_8", "op": "AddV2", "input": ["PartitionedCall/convolution_8", "unknown_18"], "attr": {"T": {"type": "DT_FLOAT"}}}, {"name": "PartitionedCall/transpose_26", "op": "Transpose", "input": ["PartitionedCall/Add_8", "PartitionedCall/transpose_26/perm"], "attr": {"Tperm": {"type": "DT_INT32"}, "T": {"type": "DT_FLOAT"}}}, {"name": "PartitionedCall/onnx_tf_prefix_/model.4/m.0/cv1/act/Sigmoid", "op": "Sigmoid", "input": ["PartitionedCall/transpose_26"], "attr": {"T": {"type": "DT_FLOAT"}}}, {"name": "PartitionedCall/onnx_tf_prefix_/model.4/m.0/cv1/act/Mul", "op": "Mul", "input": ["PartitionedCall/transpose_26", "PartitionedCall/onnx_tf_prefix_/model.4/m.0/cv1/act/Sigmoid"], "attr": {"T": {"type": "DT_FLOAT"}}}, {"name": "PartitionedCall/Pad_6", "op": "Pad", "input": ["PartitionedCall/onnx_tf_prefix_/model.4/m.0/cv1/act/Mul", "PartitionedCall/Const_6"], "attr": {"Tpaddings": {"type": "DT_INT32"}, "T": {"type": "DT_FLOAT"}}}, {"name": "PartitionedCall/transpose_28", "op": "Transpose", "input": ["PartitionedCall/Pad_6", "PartitionedCall/transpose_28/perm"], "attr": {"Tperm": {"type": "DT_INT32"}, "T": {"type": "DT_FLOAT"}}}, {"name": "PartitionedCall/convolution_9", "op": "Conv2D", "input": ["PartitionedCall/transpose_28", "PartitionedCall/split_9"], "device": "/device:CPU:0", "attr": {"use_cudnn_on_gpu": {"b": true}, "T": {"type": "DT_FLOAT"}, "dilations": {"list": {"i": ["1", "1", "1", "1"]}}, "data_format": {"s": "TkhXQw=="}, "padding": {"s": "VkFMSUQ="}, "strides": {"list": {"i": ["1", "1", "1", "1"]}}, "explicit_paddings": {"list": {}}}}, {"name": "PartitionedCall/Add_9", "op": "AddV2", "input": ["PartitionedCall/convolution_9", "unknown_20"], "attr": {"T": {"type": "DT_FLOAT"}}}, {"name": "PartitionedCall/transpose_29", "op": "Transpose", "input": ["PartitionedCall/Add_9", "PartitionedCall/transpose_29/perm"], "attr": {"Tperm": {"type": "DT_INT32"}, "T": {"type": "DT_FLOAT"}}}, {"name": "PartitionedCall/onnx_tf_prefix_/model.4/m.0/cv2/act/Sigmoid", "op": "Sigmoid", "input": ["PartitionedCall/transpose_29"], "attr": {"T": {"type": "DT_FLOAT"}}}, {"name": "PartitionedCall/onnx_tf_prefix_/model.4/m.0/cv2/act/Mul", "op": "Mul", "input": ["PartitionedCall/transpose_29", "PartitionedCall/onnx_tf_prefix_/model.4/m.0/cv2/act/Sigmoid"], "attr": {"T": {"type": "DT_FLOAT"}}}, {"name": "PartitionedCall/onnx_tf_prefix_/model.4/m.0/Add", "op": "AddV2", "input": ["PartitionedCall/onnx_tf_prefix_/model.4/Split:1", "PartitionedCall/onnx_tf_prefix_/model.4/m.0/cv2/act/Mul"], "attr": {"T": {"type": "DT_FLOAT"}}}, {"name": "PartitionedCall/Pad_7", "op": "Pad", "input": ["PartitionedCall/onnx_tf_prefix_/model.4/m.0/Add", "PartitionedCall/Const_7"], "attr": {"Tpaddings": {"type": "DT_INT32"}, "T": {"type": "DT_FLOAT"}}}, {"name": "PartitionedCall/transpose_31", "op": "Transpose", "input": ["PartitionedCall/Pad_7", "PartitionedCall/transpose_31/perm"], "attr": {"T": {"type": "DT_FLOAT"}, "Tperm": {"type": "DT_INT32"}}}, {"name": "PartitionedCall/convolution_10", "op": "Conv2D", "input": ["PartitionedCall/transpose_31", "PartitionedCall/split_10"], "device": "/device:CPU:0", "attr": {"dilations": {"list": {"i": ["1", "1", "1", "1"]}}, "padding": {"s": "VkFMSUQ="}, "data_format": {"s": "TkhXQw=="}, "T": {"type": "DT_FLOAT"}, "explicit_paddings": {"list": {}}, "strides": {"list": {"i": ["1", "1", "1", "1"]}}, "use_cudnn_on_gpu": {"b": true}}}, {"name": "PartitionedCall/Add_10", "op": "AddV2", "input": ["PartitionedCall/convolution_10", "unknown_22"], "attr": {"T": {"type": "DT_FLOAT"}}}, {"name": "PartitionedCall/transpose_32", "op": "Transpose", "input": ["PartitionedCall/Add_10", "PartitionedCall/transpose_32/perm"], "attr": {"T": {"type": "DT_FLOAT"}, "Tperm": {"type": "DT_INT32"}}}, {"name": "PartitionedCall/onnx_tf_prefix_/model.4/m.1/cv1/act/Sigmoid", "op": "Sigmoid", "input": ["PartitionedCall/transpose_32"], "attr": {"T": {"type": "DT_FLOAT"}}}, {"name": "PartitionedCall/onnx_tf_prefix_/model.4/m.1/cv1/act/Mul", "op": "Mul", "input": ["PartitionedCall/transpose_32", "PartitionedCall/onnx_tf_prefix_/model.4/m.1/cv1/act/Sigmoid"], "attr": {"T": {"type": "DT_FLOAT"}}}, {"name": "PartitionedCall/Pad_8", "op": "Pad", "input": ["PartitionedCall/onnx_tf_prefix_/model.4/m.1/cv1/act/Mul", "PartitionedCall/Const_8"], "attr": {"T": {"type": "DT_FLOAT"}, "Tpaddings": {"type": "DT_INT32"}}}, {"name": "PartitionedCall/transpose_34", "op": "Transpose", "input": ["PartitionedCall/Pad_8", "PartitionedCall/transpose_34/perm"], "attr": {"Tperm": {"type": "DT_INT32"}, "T": {"type": "DT_FLOAT"}}}, {"name": "PartitionedCall/convolution_11", "op": "Conv2D", "input": ["PartitionedCall/transpose_34", "PartitionedCall/split_11"], "device": "/device:CPU:0", "attr": {"T": {"type": "DT_FLOAT"}, "strides": {"list": {"i": ["1", "1", "1", "1"]}}, "explicit_paddings": {"list": {}}, "use_cudnn_on_gpu": {"b": true}, "dilations": {"list": {"i": ["1", "1", "1", "1"]}}, "padding": {"s": "VkFMSUQ="}, "data_format": {"s": "TkhXQw=="}}}, {"name": "PartitionedCall/Add_11", "op": "AddV2", "input": ["PartitionedCall/convolution_11", "unknown_24"], "attr": {"T": {"type": "DT_FLOAT"}}}, {"name": "PartitionedCall/transpose_35", "op": "Transpose", "input": ["PartitionedCall/Add_11", "PartitionedCall/transpose_35/perm"], "attr": {"Tperm": {"type": "DT_INT32"}, "T": {"type": "DT_FLOAT"}}}, {"name": "PartitionedCall/onnx_tf_prefix_/model.4/m.1/cv2/act/Sigmoid", "op": "Sigmoid", "input": ["PartitionedCall/transpose_35"], "attr": {"T": {"type": "DT_FLOAT"}}}, {"name": "PartitionedCall/onnx_tf_prefix_/model.4/m.1/cv2/act/Mul", "op": "Mul", "input": ["PartitionedCall/transpose_35", "PartitionedCall/onnx_tf_prefix_/model.4/m.1/cv2/act/Sigmoid"], "attr": {"T": {"type": "DT_FLOAT"}}}, {"name": "PartitionedCall/onnx_tf_prefix_/model.4/m.1/Add", "op": "AddV2", "input": ["PartitionedCall/onnx_tf_prefix_/model.4/m.0/Add", "PartitionedCall/onnx_tf_prefix_/model.4/m.1/cv2/act/Mul"], "attr": {"T": {"type": "DT_FLOAT"}}}, {"name": "PartitionedCall/onnx_tf_prefix_/model.4/Concat", "op": "ConcatV2", "input": ["PartitionedCall/onnx_tf_prefix_/model.4/Split", "PartitionedCall/onnx_tf_prefix_/model.4/Split:1", "PartitionedCall/onnx_tf_prefix_/model.4/m.0/Add", "PartitionedCall/onnx_tf_prefix_/model.4/m.1/Add", "PartitionedCall/onnx_tf_prefix_/model.4/Concat/axis"], "attr": {"Tidx": {"type": "DT_INT32"}, "T": {"type": "DT_FLOAT"}, "N": {"i": "4"}}}, {"name": "PartitionedCall/transpose_37", "op": "Transpose", "input": ["PartitionedCall/onnx_tf_prefix_/model.4/Concat", "PartitionedCall/transpose_37/perm"], "attr": {"T": {"type": "DT_FLOAT"}, "Tperm": {"type": "DT_INT32"}}}, {"name": "PartitionedCall/convolution_12", "op": "Conv2D", "input": ["PartitionedCall/transpose_37", "PartitionedCall/split_12"], "device": "/device:CPU:0", "attr": {"dilations": {"list": {"i": ["1", "1", "1", "1"]}}, "use_cudnn_on_gpu": {"b": true}, "strides": {"list": {"i": ["1", "1", "1", "1"]}}, "data_format": {"s": "TkhXQw=="}, "T": {"type": "DT_FLOAT"}, "padding": {"s": "VkFMSUQ="}, "explicit_paddings": {"list": {}}}}, {"name": "PartitionedCall/Add_12", "op": "AddV2", "input": ["PartitionedCall/convolution_12", "unknown_26"], "attr": {"T": {"type": "DT_FLOAT"}}}, {"name": "PartitionedCall/transpose_38", "op": "Transpose", "input": ["PartitionedCall/Add_12", "PartitionedCall/transpose_38/perm"], "attr": {"Tperm": {"type": "DT_INT32"}, "T": {"type": "DT_FLOAT"}}}, {"name": "PartitionedCall/onnx_tf_prefix_/model.4/cv2/act/Sigmoid", "op": "Sigmoid", "input": ["PartitionedCall/transpose_38"], "attr": {"T": {"type": "DT_FLOAT"}}}, {"name": "PartitionedCall/onnx_tf_prefix_/model.4/cv2/act/Mul", "op": "Mul", "input": ["PartitionedCall/transpose_38", "PartitionedCall/onnx_tf_prefix_/model.4/cv2/act/Sigmoid"], "attr": {"T": {"type": "DT_FLOAT"}}}, {"name": "PartitionedCall/Pad_9", "op": "Pad", "input": ["PartitionedCall/onnx_tf_prefix_/model.4/cv2/act/Mul", "PartitionedCall/Const_9"], "attr": {"Tpaddings": {"type": "DT_INT32"}, "T": {"type": "DT_FLOAT"}}}, {"name": "PartitionedCall/transpose_40", "op": "Transpose", "input": ["PartitionedCall/Pad_9", "PartitionedCall/transpose_40/perm"], "attr": {"T": {"type": "DT_FLOAT"}, "Tperm": {"type": "DT_INT32"}}}, {"name": "PartitionedCall/convolution_13", "op": "Conv2D", "input": ["PartitionedCall/transpose_40", "PartitionedCall/split_13"], "device": "/device:CPU:0", "attr": {"padding": {"s": "VkFMSUQ="}, "dilations": {"list": {"i": ["1", "1", "1", "1"]}}, "use_cudnn_on_gpu": {"b": true}, "data_format": {"s": "TkhXQw=="}, "strides": {"list": {"i": ["1", "2", "2", "1"]}}, "T": {"type": "DT_FLOAT"}, "explicit_paddings": {"list": {}}}}, {"name": "PartitionedCall/Add_13", "op": "AddV2", "input": ["PartitionedCall/convolution_13", "unknown_28"], "attr": {"T": {"type": "DT_FLOAT"}}}, {"name": "PartitionedCall/transpose_41", "op": "Transpose", "input": ["PartitionedCall/Add_13", "PartitionedCall/transpose_41/perm"], "attr": {"T": {"type": "DT_FLOAT"}, "Tperm": {"type": "DT_INT32"}}}, {"name": "PartitionedCall/onnx_tf_prefix_/model.5/act/Sigmoid", "op": "Sigmoid", "input": ["PartitionedCall/transpose_41"], "attr": {"T": {"type": "DT_FLOAT"}}}, {"name": "PartitionedCall/onnx_tf_prefix_/model.5/act/Mul", "op": "Mul", "input": ["PartitionedCall/transpose_41", "PartitionedCall/onnx_tf_prefix_/model.5/act/Sigmoid"], "attr": {"T": {"type": "DT_FLOAT"}}}, {"name": "PartitionedCall/transpose_43", "op": "Transpose", "input": ["PartitionedCall/onnx_tf_prefix_/model.5/act/Mul", "PartitionedCall/transpose_43/perm"], "attr": {"T": {"type": "DT_FLOAT"}, "Tperm": {"type": "DT_INT32"}}}, {"name": "PartitionedCall/convolution_14", "op": "Conv2D", "input": ["PartitionedCall/transpose_43", "PartitionedCall/split_14"], "device": "/device:CPU:0", "attr": {"data_format": {"s": "TkhXQw=="}, "dilations": {"list": {"i": ["1", "1", "1", "1"]}}, "padding": {"s": "VkFMSUQ="}, "explicit_paddings": {"list": {}}, "T": {"type": "DT_FLOAT"}, "use_cudnn_on_gpu": {"b": true}, "strides": {"list": {"i": ["1", "1", "1", "1"]}}}}, {"name": "PartitionedCall/Add_14", "op": "AddV2", "input": ["PartitionedCall/convolution_14", "unknown_30"], "attr": {"T": {"type": "DT_FLOAT"}}}, {"name": "PartitionedCall/transpose_44", "op": "Transpose", "input": ["PartitionedCall/Add_14", "PartitionedCall/transpose_44/perm"], "attr": {"Tperm": {"type": "DT_INT32"}, "T": {"type": "DT_FLOAT"}}}, {"name": "PartitionedCall/onnx_tf_prefix_/model.6/cv1/act/Sigmoid", "op": "Sigmoid", "input": ["PartitionedCall/transpose_44"], "attr": {"T": {"type": "DT_FLOAT"}}}, {"name": "PartitionedCall/onnx_tf_prefix_/model.6/cv1/act/Mul", "op": "Mul", "input": ["PartitionedCall/transpose_44", "PartitionedCall/onnx_tf_prefix_/model.6/cv1/act/Sigmoid"], "attr": {"T": {"type": "DT_FLOAT"}}}, {"name": "PartitionedCall/onnx_tf_prefix_/model.6/Split", "op": "SplitV", "input": ["PartitionedCall/onnx_tf_prefix_/model.6/cv1/act/Mul", "unknown_31", "PartitionedCall/onnx_tf_prefix_/model.6/Split/split_dim"], "attr": {"Tlen": {"type": "DT_INT64"}, "T": {"type": "DT_FLOAT"}, "num_split": {"i": "2"}}}, {"name": "PartitionedCall/Pad_10", "op": "Pad", "input": ["PartitionedCall/onnx_tf_prefix_/model.6/Split:1", "PartitionedCall/Const_10"], "attr": {"Tpaddings": {"type": "DT_INT32"}, "T": {"type": "DT_FLOAT"}}}, {"name": "PartitionedCall/transpose_46", "op": "Transpose", "input": ["PartitionedCall/Pad_10", "PartitionedCall/transpose_46/perm"], "attr": {"T": {"type": "DT_FLOAT"}, "Tperm": {"type": "DT_INT32"}}}, {"name": "PartitionedCall/convolution_15", "op": "Conv2D", "input": ["PartitionedCall/transpose_46", "PartitionedCall/split_15"], "device": "/device:CPU:0", "attr": {"padding": {"s": "VkFMSUQ="}, "explicit_paddings": {"list": {}}, "T": {"type": "DT_FLOAT"}, "use_cudnn_on_gpu": {"b": true}, "strides": {"list": {"i": ["1", "1", "1", "1"]}}, "data_format": {"s": "TkhXQw=="}, "dilations": {"list": {"i": ["1", "1", "1", "1"]}}}}, {"name": "PartitionedCall/Add_15", "op": "AddV2", "input": ["PartitionedCall/convolution_15", "unknown_33"], "attr": {"T": {"type": "DT_FLOAT"}}}, {"name": "PartitionedCall/transpose_47", "op": "Transpose", "input": ["PartitionedCall/Add_15", "PartitionedCall/transpose_47/perm"], "attr": {"T": {"type": "DT_FLOAT"}, "Tperm": {"type": "DT_INT32"}}}, {"name": "PartitionedCall/onnx_tf_prefix_/model.6/m.0/cv1/act/Sigmoid", "op": "Sigmoid", "input": ["PartitionedCall/transpose_47"], "attr": {"T": {"type": "DT_FLOAT"}}}, {"name": "PartitionedCall/onnx_tf_prefix_/model.6/m.0/cv1/act/Mul", "op": "Mul", "input": ["PartitionedCall/transpose_47", "PartitionedCall/onnx_tf_prefix_/model.6/m.0/cv1/act/Sigmoid"], "attr": {"T": {"type": "DT_FLOAT"}}}, {"name": "PartitionedCall/Pad_11", "op": "Pad", "input": ["PartitionedCall/onnx_tf_prefix_/model.6/m.0/cv1/act/Mul", "PartitionedCall/Const_11"], "attr": {"Tpaddings": {"type": "DT_INT32"}, "T": {"type": "DT_FLOAT"}}}, {"name": "PartitionedCall/transpose_49", "op": "Transpose", "input": ["PartitionedCall/Pad_11", "PartitionedCall/transpose_49/perm"], "attr": {"Tperm": {"type": "DT_INT32"}, "T": {"type": "DT_FLOAT"}}}, {"name": "PartitionedCall/convolution_16", "op": "Conv2D", "input": ["PartitionedCall/transpose_49", "PartitionedCall/split_16"], "device": "/device:CPU:0", "attr": {"use_cudnn_on_gpu": {"b": true}, "padding": {"s": "VkFMSUQ="}, "strides": {"list": {"i": ["1", "1", "1", "1"]}}, "data_format": {"s": "TkhXQw=="}, "explicit_paddings": {"list": {}}, "T": {"type": "DT_FLOAT"}, "dilations": {"list": {"i": ["1", "1", "1", "1"]}}}}, {"name": "PartitionedCall/Add_16", "op": "AddV2", "input": ["PartitionedCall/convolution_16", "unknown_35"], "attr": {"T": {"type": "DT_FLOAT"}}}, {"name": "PartitionedCall/transpose_50", "op": "Transpose", "input": ["PartitionedCall/Add_16", "PartitionedCall/transpose_50/perm"], "attr": {"T": {"type": "DT_FLOAT"}, "Tperm": {"type": "DT_INT32"}}}, {"name": "PartitionedCall/onnx_tf_prefix_/model.6/m.0/cv2/act/Sigmoid", "op": "Sigmoid", "input": ["PartitionedCall/transpose_50"], "attr": {"T": {"type": "DT_FLOAT"}}}, {"name": "PartitionedCall/onnx_tf_prefix_/model.6/m.0/cv2/act/Mul", "op": "Mul", "input": ["PartitionedCall/transpose_50", "PartitionedCall/onnx_tf_prefix_/model.6/m.0/cv2/act/Sigmoid"], "attr": {"T": {"type": "DT_FLOAT"}}}, {"name": "PartitionedCall/onnx_tf_prefix_/model.6/m.0/Add", "op": "AddV2", "input": ["PartitionedCall/onnx_tf_prefix_/model.6/Split:1", "PartitionedCall/onnx_tf_prefix_/model.6/m.0/cv2/act/Mul"], "attr": {"T": {"type": "DT_FLOAT"}}}, {"name": "PartitionedCall/Pad_12", "op": "Pad", "input": ["PartitionedCall/onnx_tf_prefix_/model.6/m.0/Add", "PartitionedCall/Const_12"], "attr": {"Tpaddings": {"type": "DT_INT32"}, "T": {"type": "DT_FLOAT"}}}, {"name": "PartitionedCall/transpose_52", "op": "Transpose", "input": ["PartitionedCall/Pad_12", "PartitionedCall/transpose_52/perm"], "attr": {"Tperm": {"type": "DT_INT32"}, "T": {"type": "DT_FLOAT"}}}, {"name": "PartitionedCall/convolution_17", "op": "Conv2D", "input": ["PartitionedCall/transpose_52", "PartitionedCall/split_17"], "device": "/device:CPU:0", "attr": {"dilations": {"list": {"i": ["1", "1", "1", "1"]}}, "strides": {"list": {"i": ["1", "1", "1", "1"]}}, "explicit_paddings": {"list": {}}, "padding": {"s": "VkFMSUQ="}, "use_cudnn_on_gpu": {"b": true}, "data_format": {"s": "TkhXQw=="}, "T": {"type": "DT_FLOAT"}}}, {"name": "PartitionedCall/Add_17", "op": "AddV2", "input": ["PartitionedCall/convolution_17", "unknown_37"], "attr": {"T": {"type": "DT_FLOAT"}}}, {"name": "PartitionedCall/transpose_53", "op": "Transpose", "input": ["PartitionedCall/Add_17", "PartitionedCall/transpose_53/perm"], "attr": {"Tperm": {"type": "DT_INT32"}, "T": {"type": "DT_FLOAT"}}}, {"name": "PartitionedCall/onnx_tf_prefix_/model.6/m.1/cv1/act/Sigmoid", "op": "Sigmoid", "input": ["PartitionedCall/transpose_53"], "attr": {"T": {"type": "DT_FLOAT"}}}, {"name": "PartitionedCall/onnx_tf_prefix_/model.6/m.1/cv1/act/Mul", "op": "Mul", "input": ["PartitionedCall/transpose_53", "PartitionedCall/onnx_tf_prefix_/model.6/m.1/cv1/act/Sigmoid"], "attr": {"T": {"type": "DT_FLOAT"}}}, {"name": "PartitionedCall/Pad_13", "op": "Pad", "input": ["PartitionedCall/onnx_tf_prefix_/model.6/m.1/cv1/act/Mul", "PartitionedCall/Const_13"], "attr": {"Tpaddings": {"type": "DT_INT32"}, "T": {"type": "DT_FLOAT"}}}, {"name": "PartitionedCall/transpose_55", "op": "Transpose", "input": ["PartitionedCall/Pad_13", "PartitionedCall/transpose_55/perm"], "attr": {"T": {"type": "DT_FLOAT"}, "Tperm": {"type": "DT_INT32"}}}, {"name": "PartitionedCall/convolution_18", "op": "Conv2D", "input": ["PartitionedCall/transpose_55", "PartitionedCall/split_18"], "device": "/device:CPU:0", "attr": {"strides": {"list": {"i": ["1", "1", "1", "1"]}}, "T": {"type": "DT_FLOAT"}, "data_format": {"s": "TkhXQw=="}, "padding": {"s": "VkFMSUQ="}, "dilations": {"list": {"i": ["1", "1", "1", "1"]}}, "explicit_paddings": {"list": {}}, "use_cudnn_on_gpu": {"b": true}}}, {"name": "PartitionedCall/Add_18", "op": "AddV2", "input": ["PartitionedCall/convolution_18", "unknown_39"], "attr": {"T": {"type": "DT_FLOAT"}}}, {"name": "PartitionedCall/transpose_56", "op": "Transpose", "input": ["PartitionedCall/Add_18", "PartitionedCall/transpose_56/perm"], "attr": {"T": {"type": "DT_FLOAT"}, "Tperm": {"type": "DT_INT32"}}}, {"name": "PartitionedCall/onnx_tf_prefix_/model.6/m.1/cv2/act/Sigmoid", "op": "Sigmoid", "input": ["PartitionedCall/transpose_56"], "attr": {"T": {"type": "DT_FLOAT"}}}, {"name": "PartitionedCall/onnx_tf_prefix_/model.6/m.1/cv2/act/Mul", "op": "Mul", "input": ["PartitionedCall/transpose_56", "PartitionedCall/onnx_tf_prefix_/model.6/m.1/cv2/act/Sigmoid"], "attr": {"T": {"type": "DT_FLOAT"}}}, {"name": "PartitionedCall/onnx_tf_prefix_/model.6/m.1/Add", "op": "AddV2", "input": ["PartitionedCall/onnx_tf_prefix_/model.6/m.0/Add", "PartitionedCall/onnx_tf_prefix_/model.6/m.1/cv2/act/Mul"], "attr": {"T": {"type": "DT_FLOAT"}}}, {"name": "PartitionedCall/onnx_tf_prefix_/model.6/Concat", "op": "ConcatV2", "input": ["PartitionedCall/onnx_tf_prefix_/model.6/Split", "PartitionedCall/onnx_tf_prefix_/model.6/Split:1", "PartitionedCall/onnx_tf_prefix_/model.6/m.0/Add", "PartitionedCall/onnx_tf_prefix_/model.6/m.1/Add", "PartitionedCall/onnx_tf_prefix_/model.6/Concat/axis"], "attr": {"Tidx": {"type": "DT_INT32"}, "T": {"type": "DT_FLOAT"}, "N": {"i": "4"}}}, {"name": "PartitionedCall/transpose_58", "op": "Transpose", "input": ["PartitionedCall/onnx_tf_prefix_/model.6/Concat", "PartitionedCall/transpose_58/perm"], "attr": {"Tperm": {"type": "DT_INT32"}, "T": {"type": "DT_FLOAT"}}}, {"name": "PartitionedCall/convolution_19", "op": "Conv2D", "input": ["PartitionedCall/transpose_58", "PartitionedCall/split_19"], "device": "/device:CPU:0", "attr": {"data_format": {"s": "TkhXQw=="}, "dilations": {"list": {"i": ["1", "1", "1", "1"]}}, "padding": {"s": "VkFMSUQ="}, "T": {"type": "DT_FLOAT"}, "explicit_paddings": {"list": {}}, "use_cudnn_on_gpu": {"b": true}, "strides": {"list": {"i": ["1", "1", "1", "1"]}}}}, {"name": "PartitionedCall/Add_19", "op": "AddV2", "input": ["PartitionedCall/convolution_19", "unknown_41"], "attr": {"T": {"type": "DT_FLOAT"}}}, {"name": "PartitionedCall/transpose_59", "op": "Transpose", "input": ["PartitionedCall/Add_19", "PartitionedCall/transpose_59/perm"], "attr": {"Tperm": {"type": "DT_INT32"}, "T": {"type": "DT_FLOAT"}}}, {"name": "PartitionedCall/onnx_tf_prefix_/model.6/cv2/act/Sigmoid", "op": "Sigmoid", "input": ["PartitionedCall/transpose_59"], "attr": {"T": {"type": "DT_FLOAT"}}}, {"name": "PartitionedCall/onnx_tf_prefix_/model.6/cv2/act/Mul", "op": "Mul", "input": ["PartitionedCall/transpose_59", "PartitionedCall/onnx_tf_prefix_/model.6/cv2/act/Sigmoid"], "attr": {"T": {"type": "DT_FLOAT"}}}, {"name": "PartitionedCall/Pad_14", "op": "Pad", "input": ["PartitionedCall/onnx_tf_prefix_/model.6/cv2/act/Mul", "PartitionedCall/Const_14"], "attr": {"T": {"type": "DT_FLOAT"}, "Tpaddings": {"type": "DT_INT32"}}}, {"name": "PartitionedCall/transpose_61", "op": "Transpose", "input": ["PartitionedCall/Pad_14", "PartitionedCall/transpose_61/perm"], "attr": {"Tperm": {"type": "DT_INT32"}, "T": {"type": "DT_FLOAT"}}}, {"name": "PartitionedCall/convolution_20", "op": "Conv2D", "input": ["PartitionedCall/transpose_61", "PartitionedCall/split_20"], "device": "/device:CPU:0", "attr": {"data_format": {"s": "TkhXQw=="}, "strides": {"list": {"i": ["1", "2", "2", "1"]}}, "dilations": {"list": {"i": ["1", "1", "1", "1"]}}, "padding": {"s": "VkFMSUQ="}, "T": {"type": "DT_FLOAT"}, "explicit_paddings": {"list": {}}, "use_cudnn_on_gpu": {"b": true}}}, {"name": "PartitionedCall/Add_20", "op": "AddV2", "input": ["PartitionedCall/convolution_20", "unknown_43"], "attr": {"T": {"type": "DT_FLOAT"}}}, {"name": "PartitionedCall/transpose_62", "op": "Transpose", "input": ["PartitionedCall/Add_20", "PartitionedCall/transpose_62/perm"], "attr": {"T": {"type": "DT_FLOAT"}, "Tperm": {"type": "DT_INT32"}}}, {"name": "PartitionedCall/onnx_tf_prefix_/model.7/act/Sigmoid", "op": "Sigmoid", "input": ["PartitionedCall/transpose_62"], "attr": {"T": {"type": "DT_FLOAT"}}}, {"name": "PartitionedCall/onnx_tf_prefix_/model.7/act/Mul", "op": "Mul", "input": ["PartitionedCall/transpose_62", "PartitionedCall/onnx_tf_prefix_/model.7/act/Sigmoid"], "attr": {"T": {"type": "DT_FLOAT"}}}, {"name": "PartitionedCall/transpose_64", "op": "Transpose", "input": ["PartitionedCall/onnx_tf_prefix_/model.7/act/Mul", "PartitionedCall/transpose_64/perm"], "attr": {"T": {"type": "DT_FLOAT"}, "Tperm": {"type": "DT_INT32"}}}, {"name": "PartitionedCall/convolution_21", "op": "Conv2D", "input": ["PartitionedCall/transpose_64", "PartitionedCall/split_21"], "device": "/device:CPU:0", "attr": {"dilations": {"list": {"i": ["1", "1", "1", "1"]}}, "explicit_paddings": {"list": {}}, "strides": {"list": {"i": ["1", "1", "1", "1"]}}, "use_cudnn_on_gpu": {"b": true}, "data_format": {"s": "TkhXQw=="}, "T": {"type": "DT_FLOAT"}, "padding": {"s": "VkFMSUQ="}}}, {"name": "PartitionedCall/Add_21", "op": "AddV2", "input": ["PartitionedCall/convolution_21", "unknown_45"], "attr": {"T": {"type": "DT_FLOAT"}}}, {"name": "PartitionedCall/transpose_65", "op": "Transpose", "input": ["PartitionedCall/Add_21", "PartitionedCall/transpose_65/perm"], "attr": {"T": {"type": "DT_FLOAT"}, "Tperm": {"type": "DT_INT32"}}}, {"name": "PartitionedCall/onnx_tf_prefix_/model.8/cv1/act/Sigmoid", "op": "Sigmoid", "input": ["PartitionedCall/transpose_65"], "attr": {"T": {"type": "DT_FLOAT"}}}, {"name": "PartitionedCall/onnx_tf_prefix_/model.8/cv1/act/Mul", "op": "Mul", "input": ["PartitionedCall/transpose_65", "PartitionedCall/onnx_tf_prefix_/model.8/cv1/act/Sigmoid"], "attr": {"T": {"type": "DT_FLOAT"}}}, {"name": "PartitionedCall/onnx_tf_prefix_/model.8/Split", "op": "SplitV", "input": ["PartitionedCall/onnx_tf_prefix_/model.8/cv1/act/Mul", "unknown_46", "PartitionedCall/onnx_tf_prefix_/model.8/Split/split_dim"], "attr": {"T": {"type": "DT_FLOAT"}, "Tlen": {"type": "DT_INT64"}, "num_split": {"i": "2"}}}, {"name": "PartitionedCall/Pad_15", "op": "Pad", "input": ["PartitionedCall/onnx_tf_prefix_/model.8/Split:1", "PartitionedCall/Const_15"], "attr": {"T": {"type": "DT_FLOAT"}, "Tpaddings": {"type": "DT_INT32"}}}, {"name": "PartitionedCall/transpose_67", "op": "Transpose", "input": ["PartitionedCall/Pad_15", "PartitionedCall/transpose_67/perm"], "attr": {"T": {"type": "DT_FLOAT"}, "Tperm": {"type": "DT_INT32"}}}, {"name": "PartitionedCall/convolution_22", "op": "Conv2D", "input": ["PartitionedCall/transpose_67", "PartitionedCall/split_22"], "device": "/device:CPU:0", "attr": {"strides": {"list": {"i": ["1", "1", "1", "1"]}}, "data_format": {"s": "TkhXQw=="}, "padding": {"s": "VkFMSUQ="}, "explicit_paddings": {"list": {}}, "dilations": {"list": {"i": ["1", "1", "1", "1"]}}, "T": {"type": "DT_FLOAT"}, "use_cudnn_on_gpu": {"b": true}}}, {"name": "PartitionedCall/Add_22", "op": "AddV2", "input": ["PartitionedCall/convolution_22", "unknown_48"], "attr": {"T": {"type": "DT_FLOAT"}}}, {"name": "PartitionedCall/transpose_68", "op": "Transpose", "input": ["PartitionedCall/Add_22", "PartitionedCall/transpose_68/perm"], "attr": {"Tperm": {"type": "DT_INT32"}, "T": {"type": "DT_FLOAT"}}}, {"name": "PartitionedCall/onnx_tf_prefix_/model.8/m.0/cv1/act/Sigmoid", "op": "Sigmoid", "input": ["PartitionedCall/transpose_68"], "attr": {"T": {"type": "DT_FLOAT"}}}, {"name": "PartitionedCall/onnx_tf_prefix_/model.8/m.0/cv1/act/Mul", "op": "Mul", "input": ["PartitionedCall/transpose_68", "PartitionedCall/onnx_tf_prefix_/model.8/m.0/cv1/act/Sigmoid"], "attr": {"T": {"type": "DT_FLOAT"}}}, {"name": "PartitionedCall/Pad_16", "op": "Pad", "input": ["PartitionedCall/onnx_tf_prefix_/model.8/m.0/cv1/act/Mul", "PartitionedCall/Const_16"], "attr": {"T": {"type": "DT_FLOAT"}, "Tpaddings": {"type": "DT_INT32"}}}, {"name": "PartitionedCall/transpose_70", "op": "Transpose", "input": ["PartitionedCall/Pad_16", "PartitionedCall/transpose_70/perm"], "attr": {"Tperm": {"type": "DT_INT32"}, "T": {"type": "DT_FLOAT"}}}, {"name": "PartitionedCall/convolution_23", "op": "Conv2D", "input": ["PartitionedCall/transpose_70", "PartitionedCall/split_23"], "device": "/device:CPU:0", "attr": {"strides": {"list": {"i": ["1", "1", "1", "1"]}}, "T": {"type": "DT_FLOAT"}, "data_format": {"s": "TkhXQw=="}, "dilations": {"list": {"i": ["1", "1", "1", "1"]}}, "padding": {"s": "VkFMSUQ="}, "explicit_paddings": {"list": {}}, "use_cudnn_on_gpu": {"b": true}}}, {"name": "PartitionedCall/Add_23", "op": "AddV2", "input": ["PartitionedCall/convolution_23", "unknown_50"], "attr": {"T": {"type": "DT_FLOAT"}}}, {"name": "PartitionedCall/transpose_71", "op": "Transpose", "input": ["PartitionedCall/Add_23", "PartitionedCall/transpose_71/perm"], "attr": {"Tperm": {"type": "DT_INT32"}, "T": {"type": "DT_FLOAT"}}}, {"name": "PartitionedCall/onnx_tf_prefix_/model.8/m.0/cv2/act/Sigmoid", "op": "Sigmoid", "input": ["PartitionedCall/transpose_71"], "attr": {"T": {"type": "DT_FLOAT"}}}, {"name": "PartitionedCall/onnx_tf_prefix_/model.8/m.0/cv2/act/Mul", "op": "Mul", "input": ["PartitionedCall/transpose_71", "PartitionedCall/onnx_tf_prefix_/model.8/m.0/cv2/act/Sigmoid"], "attr": {"T": {"type": "DT_FLOAT"}}}, {"name": "PartitionedCall/onnx_tf_prefix_/model.8/m.0/Add", "op": "AddV2", "input": ["PartitionedCall/onnx_tf_prefix_/model.8/Split:1", "PartitionedCall/onnx_tf_prefix_/model.8/m.0/cv2/act/Mul"], "attr": {"T": {"type": "DT_FLOAT"}}}, {"name": "PartitionedCall/onnx_tf_prefix_/model.8/Concat", "op": "ConcatV2", "input": ["PartitionedCall/onnx_tf_prefix_/model.8/Split", "PartitionedCall/onnx_tf_prefix_/model.8/Split:1", "PartitionedCall/onnx_tf_prefix_/model.8/m.0/Add", "PartitionedCall/onnx_tf_prefix_/model.8/Concat/axis"], "attr": {"T": {"type": "DT_FLOAT"}, "Tidx": {"type": "DT_INT32"}, "N": {"i": "3"}}}, {"name": "PartitionedCall/transpose_73", "op": "Transpose", "input": ["PartitionedCall/onnx_tf_prefix_/model.8/Concat", "PartitionedCall/transpose_73/perm"], "attr": {"Tperm": {"type": "DT_INT32"}, "T": {"type": "DT_FLOAT"}}}, {"name": "PartitionedCall/convolution_24", "op": "Conv2D", "input": ["PartitionedCall/transpose_73", "PartitionedCall/split_24"], "device": "/device:CPU:0", "attr": {"explicit_paddings": {"list": {}}, "T": {"type": "DT_FLOAT"}, "padding": {"s": "VkFMSUQ="}, "use_cudnn_on_gpu": {"b": true}, "data_format": {"s": "TkhXQw=="}, "dilations": {"list": {"i": ["1", "1", "1", "1"]}}, "strides": {"list": {"i": ["1", "1", "1", "1"]}}}}, {"name": "PartitionedCall/Add_24", "op": "AddV2", "input": ["PartitionedCall/convolution_24", "unknown_52"], "attr": {"T": {"type": "DT_FLOAT"}}}, {"name": "PartitionedCall/transpose_74", "op": "Transpose", "input": ["PartitionedCall/Add_24", "PartitionedCall/transpose_74/perm"], "attr": {"Tperm": {"type": "DT_INT32"}, "T": {"type": "DT_FLOAT"}}}, {"name": "PartitionedCall/onnx_tf_prefix_/model.8/cv2/act/Sigmoid", "op": "Sigmoid", "input": ["PartitionedCall/transpose_74"], "attr": {"T": {"type": "DT_FLOAT"}}}, {"name": "PartitionedCall/onnx_tf_prefix_/model.8/cv2/act/Mul", "op": "Mul", "input": ["PartitionedCall/transpose_74", "PartitionedCall/onnx_tf_prefix_/model.8/cv2/act/Sigmoid"], "attr": {"T": {"type": "DT_FLOAT"}}}, {"name": "PartitionedCall/transpose_76", "op": "Transpose", "input": ["PartitionedCall/onnx_tf_prefix_/model.8/cv2/act/Mul", "PartitionedCall/transpose_76/perm"], "attr": {"T": {"type": "DT_FLOAT"}, "Tperm": {"type": "DT_INT32"}}}, {"name": "PartitionedCall/convolution_25", "op": "Conv2D", "input": ["PartitionedCall/transpose_76", "PartitionedCall/split_25"], "device": "/device:CPU:0", "attr": {"strides": {"list": {"i": ["1", "1", "1", "1"]}}, "padding": {"s": "VkFMSUQ="}, "explicit_paddings": {"list": {}}, "use_cudnn_on_gpu": {"b": true}, "data_format": {"s": "TkhXQw=="}, "dilations": {"list": {"i": ["1", "1", "1", "1"]}}, "T": {"type": "DT_FLOAT"}}}, {"name": "PartitionedCall/Add_25", "op": "AddV2", "input": ["PartitionedCall/convolution_25", "unknown_54"], "attr": {"T": {"type": "DT_FLOAT"}}}, {"name": "PartitionedCall/transpose_77", "op": "Transpose", "input": ["PartitionedCall/Add_25", "PartitionedCall/transpose_77/perm"], "attr": {"T": {"type": "DT_FLOAT"}, "Tperm": {"type": "DT_INT32"}}}, {"name": "PartitionedCall/onnx_tf_prefix_/model.9/cv1/act/Sigmoid", "op": "Sigmoid", "input": ["PartitionedCall/transpose_77"], "attr": {"T": {"type": "DT_FLOAT"}}}, {"name": "PartitionedCall/onnx_tf_prefix_/model.9/cv1/act/Mul", "op": "Mul", "input": ["PartitionedCall/transpose_77", "PartitionedCall/onnx_tf_prefix_/model.9/cv1/act/Sigmoid"], "attr": {"T": {"type": "DT_FLOAT"}}}, {"name": "PartitionedCall/transpose_78", "op": "Transpose", "input": ["PartitionedCall/onnx_tf_prefix_/model.9/cv1/act/Mul", "PartitionedCall/transpose_78/perm"], "attr": {"Tperm": {"type": "DT_INT32"}, "T": {"type": "DT_FLOAT"}}}, {"name": "PartitionedCall/max_pool", "op": "MaxPool", "input": ["PartitionedCall/transpose_78"], "attr": {"data_format": {"s": "TkhXQw=="}, "strides": {"list": {"i": ["1", "1", "1", "1"]}}, "T": {"type": "DT_FLOAT"}, "explicit_paddings": {"list": {}}, "padding": {"s": "U0FNRQ=="}, "ksize": {"list": {"i": ["1", "5", "5", "1"]}}}}, {"name": "PartitionedCall/transpose_79", "op": "Transpose", "input": ["PartitionedCall/max_pool", "PartitionedCall/transpose_79/perm"], "attr": {"T": {"type": "DT_FLOAT"}, "Tperm": {"type": "DT_INT32"}}}, {"name": "PartitionedCall/max_pool_1", "op": "MaxPool", "input": ["PartitionedCall/max_pool"], "attr": {"strides": {"list": {"i": ["1", "1", "1", "1"]}}, "data_format": {"s": "TkhXQw=="}, "T": {"type": "DT_FLOAT"}, "padding": {"s": "U0FNRQ=="}, "ksize": {"list": {"i": ["1", "5", "5", "1"]}}, "explicit_paddings": {"list": {}}}}, {"name": "PartitionedCall/transpose_81", "op": "Transpose", "input": ["PartitionedCall/max_pool_1", "PartitionedCall/transpose_81/perm"], "attr": {"Tperm": {"type": "DT_INT32"}, "T": {"type": "DT_FLOAT"}}}, {"name": "PartitionedCall/max_pool_2", "op": "MaxPool", "input": ["PartitionedCall/max_pool_1"], "attr": {"padding": {"s": "U0FNRQ=="}, "data_format": {"s": "TkhXQw=="}, "explicit_paddings": {"list": {}}, "T": {"type": "DT_FLOAT"}, "strides": {"list": {"i": ["1", "1", "1", "1"]}}, "ksize": {"list": {"i": ["1", "5", "5", "1"]}}}}, {"name": "PartitionedCall/transpose_83", "op": "Transpose", "input": ["PartitionedCall/max_pool_2", "PartitionedCall/transpose_83/perm"], "attr": {"Tperm": {"type": "DT_INT32"}, "T": {"type": "DT_FLOAT"}}}, {"name": "PartitionedCall/onnx_tf_prefix_/model.9/Concat", "op": "ConcatV2", "input": ["PartitionedCall/onnx_tf_prefix_/model.9/cv1/act/Mul", "PartitionedCall/transpose_79", "PartitionedCall/transpose_81", "PartitionedCall/transpose_83", "PartitionedCall/onnx_tf_prefix_/model.9/Concat/axis"], "attr": {"T": {"type": "DT_FLOAT"}, "Tidx": {"type": "DT_INT32"}, "N": {"i": "4"}}}, {"name": "PartitionedCall/transpose_85", "op": "Transpose", "input": ["PartitionedCall/onnx_tf_prefix_/model.9/Concat", "PartitionedCall/transpose_85/perm"], "attr": {"T": {"type": "DT_FLOAT"}, "Tperm": {"type": "DT_INT32"}}}, {"name": "PartitionedCall/convolution_26", "op": "Conv2D", "input": ["PartitionedCall/transpose_85", "PartitionedCall/split_26"], "device": "/device:CPU:0", "attr": {"T": {"type": "DT_FLOAT"}, "explicit_paddings": {"list": {}}, "use_cudnn_on_gpu": {"b": true}, "strides": {"list": {"i": ["1", "1", "1", "1"]}}, "data_format": {"s": "TkhXQw=="}, "dilations": {"list": {"i": ["1", "1", "1", "1"]}}, "padding": {"s": "VkFMSUQ="}}}, {"name": "PartitionedCall/Add_26", "op": "AddV2", "input": ["PartitionedCall/convolution_26", "unknown_56"], "attr": {"T": {"type": "DT_FLOAT"}}}, {"name": "PartitionedCall/transpose_86", "op": "Transpose", "input": ["PartitionedCall/Add_26", "PartitionedCall/transpose_86/perm"], "attr": {"T": {"type": "DT_FLOAT"}, "Tperm": {"type": "DT_INT32"}}}, {"name": "PartitionedCall/onnx_tf_prefix_/model.9/cv2/act/Sigmoid", "op": "Sigmoid", "input": ["PartitionedCall/transpose_86"], "attr": {"T": {"type": "DT_FLOAT"}}}, {"name": "PartitionedCall/onnx_tf_prefix_/model.9/cv2/act/Mul", "op": "Mul", "input": ["PartitionedCall/transpose_86", "PartitionedCall/onnx_tf_prefix_/model.9/cv2/act/Sigmoid"], "attr": {"T": {"type": "DT_FLOAT"}}}, {"name": "PartitionedCall/transpose_87", "op": "Transpose", "input": ["PartitionedCall/onnx_tf_prefix_/model.9/cv2/act/Mul", "PartitionedCall/transpose_87/perm"], "attr": {"T": {"type": "DT_FLOAT"}, "Tperm": {"type": "DT_INT32"}}}, {"name": "PartitionedCall/ResizeNearestNeighbor", "op": "ResizeNearestNeighbor", "input": ["PartitionedCall/transpose_87", "PartitionedCall/Cast_1"], "attr": {"half_pixel_centers": {"b": false}, "align_corners": {"b": false}, "T": {"type": "DT_FLOAT"}}}, {"name": "PartitionedCall/transpose_88", "op": "Transpose", "input": ["PartitionedCall/ResizeNearestNeighbor", "PartitionedCall/transpose_88/perm"], "attr": {"T": {"type": "DT_FLOAT"}, "Tperm": {"type": "DT_INT32"}}}, {"name": "PartitionedCall/onnx_tf_prefix_/model.11/Concat", "op": "ConcatV2", "input": ["PartitionedCall/transpose_88", "PartitionedCall/onnx_tf_prefix_/model.6/cv2/act/Mul", "PartitionedCall/onnx_tf_prefix_/model.11/Concat/axis"], "attr": {"T": {"type": "DT_FLOAT"}, "Tidx": {"type": "DT_INT32"}, "N": {"i": "2"}}}, {"name": "PartitionedCall/transpose_90", "op": "Transpose", "input": ["PartitionedCall/onnx_tf_prefix_/model.11/Concat", "PartitionedCall/transpose_90/perm"], "attr": {"Tperm": {"type": "DT_INT32"}, "T": {"type": "DT_FLOAT"}}}, {"name": "PartitionedCall/convolution_27", "op": "Conv2D", "input": ["PartitionedCall/transpose_90", "PartitionedCall/split_27"], "device": "/device:CPU:0", "attr": {"T": {"type": "DT_FLOAT"}, "padding": {"s": "VkFMSUQ="}, "explicit_paddings": {"list": {}}, "use_cudnn_on_gpu": {"b": true}, "strides": {"list": {"i": ["1", "1", "1", "1"]}}, "data_format": {"s": "TkhXQw=="}, "dilations": {"list": {"i": ["1", "1", "1", "1"]}}}}, {"name": "PartitionedCall/Add_27", "op": "AddV2", "input": ["PartitionedCall/convolution_27", "unknown_59"], "attr": {"T": {"type": "DT_FLOAT"}}}, {"name": "PartitionedCall/transpose_91", "op": "Transpose", "input": ["PartitionedCall/Add_27", "PartitionedCall/transpose_91/perm"], "attr": {"Tperm": {"type": "DT_INT32"}, "T": {"type": "DT_FLOAT"}}}, {"name": "PartitionedCall/onnx_tf_prefix_/model.12/cv1/act/Sigmoid", "op": "Sigmoid", "input": ["PartitionedCall/transpose_91"], "attr": {"T": {"type": "DT_FLOAT"}}}, {"name": "PartitionedCall/onnx_tf_prefix_/model.12/cv1/act/Mul", "op": "Mul", "input": ["PartitionedCall/transpose_91", "PartitionedCall/onnx_tf_prefix_/model.12/cv1/act/Sigmoid"], "attr": {"T": {"type": "DT_FLOAT"}}}, {"name": "PartitionedCall/onnx_tf_prefix_/model.12/Split", "op": "SplitV", "input": ["PartitionedCall/onnx_tf_prefix_/model.12/cv1/act/Mul", "unknown_31", "PartitionedCall/onnx_tf_prefix_/model.12/Split/split_dim"], "attr": {"Tlen": {"type": "DT_INT64"}, "T": {"type": "DT_FLOAT"}, "num_split": {"i": "2"}}}, {"name": "PartitionedCall/Pad_17", "op": "Pad", "input": ["PartitionedCall/onnx_tf_prefix_/model.12/Split:1", "PartitionedCall/Const_18"], "attr": {"Tpaddings": {"type": "DT_INT32"}, "T": {"type": "DT_FLOAT"}}}, {"name": "PartitionedCall/transpose_93", "op": "Transpose", "input": ["PartitionedCall/Pad_17", "PartitionedCall/transpose_93/perm"], "attr": {"T": {"type": "DT_FLOAT"}, "Tperm": {"type": "DT_INT32"}}}, {"name": "PartitionedCall/convolution_28", "op": "Conv2D", "input": ["PartitionedCall/transpose_93", "PartitionedCall/split_28"], "device": "/device:CPU:0", "attr": {"explicit_paddings": {"list": {}}, "use_cudnn_on_gpu": {"b": true}, "data_format": {"s": "TkhXQw=="}, "padding": {"s": "VkFMSUQ="}, "strides": {"list": {"i": ["1", "1", "1", "1"]}}, "dilations": {"list": {"i": ["1", "1", "1", "1"]}}, "T": {"type": "DT_FLOAT"}}}, {"name": "PartitionedCall/Add_28", "op": "AddV2", "input": ["PartitionedCall/convolution_28", "unknown_61"], "attr": {"T": {"type": "DT_FLOAT"}}}, {"name": "PartitionedCall/transpose_94", "op": "Transpose", "input": ["PartitionedCall/Add_28", "PartitionedCall/transpose_94/perm"], "attr": {"T": {"type": "DT_FLOAT"}, "Tperm": {"type": "DT_INT32"}}}, {"name": "PartitionedCall/onnx_tf_prefix_/model.12/m.0/cv1/act/Sigmoid", "op": "Sigmoid", "input": ["PartitionedCall/transpose_94"], "attr": {"T": {"type": "DT_FLOAT"}}}, {"name": "PartitionedCall/onnx_tf_prefix_/model.12/m.0/cv1/act/Mul", "op": "Mul", "input": ["PartitionedCall/transpose_94", "PartitionedCall/onnx_tf_prefix_/model.12/m.0/cv1/act/Sigmoid"], "attr": {"T": {"type": "DT_FLOAT"}}}, {"name": "PartitionedCall/Pad_18", "op": "Pad", "input": ["PartitionedCall/onnx_tf_prefix_/model.12/m.0/cv1/act/Mul", "PartitionedCall/Const_19"], "attr": {"T": {"type": "DT_FLOAT"}, "Tpaddings": {"type": "DT_INT32"}}}, {"name": "PartitionedCall/transpose_96", "op": "Transpose", "input": ["PartitionedCall/Pad_18", "PartitionedCall/transpose_96/perm"], "attr": {"T": {"type": "DT_FLOAT"}, "Tperm": {"type": "DT_INT32"}}}, {"name": "PartitionedCall/convolution_29", "op": "Conv2D", "input": ["PartitionedCall/transpose_96", "PartitionedCall/split_29"], "device": "/device:CPU:0", "attr": {"explicit_paddings": {"list": {}}, "use_cudnn_on_gpu": {"b": true}, "strides": {"list": {"i": ["1", "1", "1", "1"]}}, "T": {"type": "DT_FLOAT"}, "data_format": {"s": "TkhXQw=="}, "padding": {"s": "VkFMSUQ="}, "dilations": {"list": {"i": ["1", "1", "1", "1"]}}}}, {"name": "PartitionedCall/Add_29", "op": "AddV2", "input": ["PartitionedCall/convolution_29", "unknown_63"], "attr": {"T": {"type": "DT_FLOAT"}}}, {"name": "PartitionedCall/transpose_97", "op": "Transpose", "input": ["PartitionedCall/Add_29", "PartitionedCall/transpose_97/perm"], "attr": {"T": {"type": "DT_FLOAT"}, "Tperm": {"type": "DT_INT32"}}}, {"name": "PartitionedCall/onnx_tf_prefix_/model.12/m.0/cv2/act/Sigmoid", "op": "Sigmoid", "input": ["PartitionedCall/transpose_97"], "attr": {"T": {"type": "DT_FLOAT"}}}, {"name": "PartitionedCall/onnx_tf_prefix_/model.12/m.0/cv2/act/Mul", "op": "Mul", "input": ["PartitionedCall/transpose_97", "PartitionedCall/onnx_tf_prefix_/model.12/m.0/cv2/act/Sigmoid"], "attr": {"T": {"type": "DT_FLOAT"}}}, {"name": "PartitionedCall/onnx_tf_prefix_/model.12/Concat", "op": "ConcatV2", "input": ["PartitionedCall/onnx_tf_prefix_/model.12/Split", "PartitionedCall/onnx_tf_prefix_/model.12/Split:1", "PartitionedCall/onnx_tf_prefix_/model.12/m.0/cv2/act/Mul", "PartitionedCall/onnx_tf_prefix_/model.12/Concat/axis"], "attr": {"Tidx": {"type": "DT_INT32"}, "N": {"i": "3"}, "T": {"type": "DT_FLOAT"}}}, {"name": "PartitionedCall/transpose_99", "op": "Transpose", "input": ["PartitionedCall/onnx_tf_prefix_/model.12/Concat", "PartitionedCall/transpose_99/perm"], "attr": {"Tperm": {"type": "DT_INT32"}, "T": {"type": "DT_FLOAT"}}}, {"name": "PartitionedCall/convolution_30", "op": "Conv2D", "input": ["PartitionedCall/transpose_99", "PartitionedCall/split_30"], "device": "/device:CPU:0", "attr": {"T": {"type": "DT_FLOAT"}, "dilations": {"list": {"i": ["1", "1", "1", "1"]}}, "explicit_paddings": {"list": {}}, "use_cudnn_on_gpu": {"b": true}, "data_format": {"s": "TkhXQw=="}, "padding": {"s": "VkFMSUQ="}, "strides": {"list": {"i": ["1", "1", "1", "1"]}}}}, {"name": "PartitionedCall/Add_30", "op": "AddV2", "input": ["PartitionedCall/convolution_30", "unknown_65"], "attr": {"T": {"type": "DT_FLOAT"}}}, {"name": "PartitionedCall/transpose_100", "op": "Transpose", "input": ["PartitionedCall/Add_30", "PartitionedCall/transpose_100/perm"], "attr": {"T": {"type": "DT_FLOAT"}, "Tperm": {"type": "DT_INT32"}}}, {"name": "PartitionedCall/onnx_tf_prefix_/model.12/cv2/act/Sigmoid", "op": "Sigmoid", "input": ["PartitionedCall/transpose_100"], "attr": {"T": {"type": "DT_FLOAT"}}}, {"name": "PartitionedCall/onnx_tf_prefix_/model.12/cv2/act/Mul", "op": "Mul", "input": ["PartitionedCall/transpose_100", "PartitionedCall/onnx_tf_prefix_/model.12/cv2/act/Sigmoid"], "attr": {"T": {"type": "DT_FLOAT"}}}, {"name": "PartitionedCall/transpose_101", "op": "Transpose", "input": ["PartitionedCall/onnx_tf_prefix_/model.12/cv2/act/Mul", "PartitionedCall/transpose_101/perm"], "attr": {"T": {"type": "DT_FLOAT"}, "Tperm": {"type": "DT_INT32"}}}, {"name": "PartitionedCall/ResizeNearestNeighbor_1", "op": "ResizeNearestNeighbor", "input": ["PartitionedCall/transpose_101", "PartitionedCall/Cast_3"], "attr": {"T": {"type": "DT_FLOAT"}, "half_pixel_centers": {"b": false}, "align_corners": {"b": false}}}, {"name": "PartitionedCall/transpose_102", "op": "Transpose", "input": ["PartitionedCall/ResizeNearestNeighbor_1", "PartitionedCall/transpose_102/perm"], "attr": {"Tperm": {"type": "DT_INT32"}, "T": {"type": "DT_FLOAT"}}}, {"name": "PartitionedCall/onnx_tf_prefix_/model.14/Concat", "op": "ConcatV2", "input": ["PartitionedCall/transpose_102", "PartitionedCall/onnx_tf_prefix_/model.4/cv2/act/Mul", "PartitionedCall/onnx_tf_prefix_/model.14/Concat/axis"], "attr": {"N": {"i": "2"}, "Tidx": {"type": "DT_INT32"}, "T": {"type": "DT_FLOAT"}}}, {"name": "PartitionedCall/transpose_104", "op": "Transpose", "input": ["PartitionedCall/onnx_tf_prefix_/model.14/Concat", "PartitionedCall/transpose_104/perm"], "attr": {"T": {"type": "DT_FLOAT"}, "Tperm": {"type": "DT_INT32"}}}, {"name": "PartitionedCall/convolution_31", "op": "Conv2D", "input": ["PartitionedCall/transpose_104", "PartitionedCall/split_31"], "device": "/device:CPU:0", "attr": {"explicit_paddings": {"list": {}}, "use_cudnn_on_gpu": {"b": true}, "dilations": {"list": {"i": ["1", "1", "1", "1"]}}, "data_format": {"s": "TkhXQw=="}, "T": {"type": "DT_FLOAT"}, "padding": {"s": "VkFMSUQ="}, "strides": {"list": {"i": ["1", "1", "1", "1"]}}}}, {"name": "PartitionedCall/Add_31", "op": "AddV2", "input": ["PartitionedCall/convolution_31", "unknown_67"], "attr": {"T": {"type": "DT_FLOAT"}}}, {"name": "PartitionedCall/transpose_105", "op": "Transpose", "input": ["PartitionedCall/Add_31", "PartitionedCall/transpose_105/perm"], "attr": {"Tperm": {"type": "DT_INT32"}, "T": {"type": "DT_FLOAT"}}}, {"name": "PartitionedCall/onnx_tf_prefix_/model.15/cv1/act/Sigmoid", "op": "Sigmoid", "input": ["PartitionedCall/transpose_105"], "attr": {"T": {"type": "DT_FLOAT"}}}, {"name": "PartitionedCall/onnx_tf_prefix_/model.15/cv1/act/Mul", "op": "Mul", "input": ["PartitionedCall/transpose_105", "PartitionedCall/onnx_tf_prefix_/model.15/cv1/act/Sigmoid"], "attr": {"T": {"type": "DT_FLOAT"}}}, {"name": "PartitionedCall/onnx_tf_prefix_/model.15/Split", "op": "SplitV", "input": ["PartitionedCall/onnx_tf_prefix_/model.15/cv1/act/Mul", "unknown_16", "PartitionedCall/onnx_tf_prefix_/model.15/Split/split_dim"], "attr": {"T": {"type": "DT_FLOAT"}, "Tlen": {"type": "DT_INT64"}, "num_split": {"i": "2"}}}, {"name": "PartitionedCall/Pad_19", "op": "Pad", "input": ["PartitionedCall/onnx_tf_prefix_/model.15/Split:1", "PartitionedCall/Const_21"], "attr": {"Tpaddings": {"type": "DT_INT32"}, "T": {"type": "DT_FLOAT"}}}, {"name": "PartitionedCall/transpose_107", "op": "Transpose", "input": ["PartitionedCall/Pad_19", "PartitionedCall/transpose_107/perm"], "attr": {"Tperm": {"type": "DT_INT32"}, "T": {"type": "DT_FLOAT"}}}, {"name": "PartitionedCall/convolution_32", "op": "Conv2D", "input": ["PartitionedCall/transpose_107", "PartitionedCall/split_32"], "device": "/device:CPU:0", "attr": {"strides": {"list": {"i": ["1", "1", "1", "1"]}}, "T": {"type": "DT_FLOAT"}, "explicit_paddings": {"list": {}}, "padding": {"s": "VkFMSUQ="}, "use_cudnn_on_gpu": {"b": true}, "dilations": {"list": {"i": ["1", "1", "1", "1"]}}, "data_format": {"s": "TkhXQw=="}}}, {"name": "PartitionedCall/Add_32", "op": "AddV2", "input": ["PartitionedCall/convolution_32", "unknown_69"], "attr": {"T": {"type": "DT_FLOAT"}}}, {"name": "PartitionedCall/transpose_108", "op": "Transpose", "input": ["PartitionedCall/Add_32", "PartitionedCall/transpose_108/perm"], "attr": {"T": {"type": "DT_FLOAT"}, "Tperm": {"type": "DT_INT32"}}}, {"name": "PartitionedCall/onnx_tf_prefix_/model.15/m.0/cv1/act/Sigmoid", "op": "Sigmoid", "input": ["PartitionedCall/transpose_108"], "attr": {"T": {"type": "DT_FLOAT"}}}, {"name": "PartitionedCall/onnx_tf_prefix_/model.15/m.0/cv1/act/Mul", "op": "Mul", "input": ["PartitionedCall/transpose_108", "PartitionedCall/onnx_tf_prefix_/model.15/m.0/cv1/act/Sigmoid"], "attr": {"T": {"type": "DT_FLOAT"}}}, {"name": "PartitionedCall/Pad_20", "op": "Pad", "input": ["PartitionedCall/onnx_tf_prefix_/model.15/m.0/cv1/act/Mul", "PartitionedCall/Const_22"], "attr": {"Tpaddings": {"type": "DT_INT32"}, "T": {"type": "DT_FLOAT"}}}, {"name": "PartitionedCall/transpose_110", "op": "Transpose", "input": ["PartitionedCall/Pad_20", "PartitionedCall/transpose_110/perm"], "attr": {"Tperm": {"type": "DT_INT32"}, "T": {"type": "DT_FLOAT"}}}, {"name": "PartitionedCall/convolution_33", "op": "Conv2D", "input": ["PartitionedCall/transpose_110", "PartitionedCall/split_33"], "device": "/device:CPU:0", "attr": {"explicit_paddings": {"list": {}}, "use_cudnn_on_gpu": {"b": true}, "strides": {"list": {"i": ["1", "1", "1", "1"]}}, "dilations": {"list": {"i": ["1", "1", "1", "1"]}}, "padding": {"s": "VkFMSUQ="}, "T": {"type": "DT_FLOAT"}, "data_format": {"s": "TkhXQw=="}}}, {"name": "PartitionedCall/Add_33", "op": "AddV2", "input": ["PartitionedCall/convolution_33", "unknown_71"], "attr": {"T": {"type": "DT_FLOAT"}}}, {"name": "PartitionedCall/transpose_111", "op": "Transpose", "input": ["PartitionedCall/Add_33", "PartitionedCall/transpose_111/perm"], "attr": {"T": {"type": "DT_FLOAT"}, "Tperm": {"type": "DT_INT32"}}}, {"name": "PartitionedCall/onnx_tf_prefix_/model.15/m.0/cv2/act/Sigmoid", "op": "Sigmoid", "input": ["PartitionedCall/transpose_111"], "attr": {"T": {"type": "DT_FLOAT"}}}, {"name": "PartitionedCall/onnx_tf_prefix_/model.15/m.0/cv2/act/Mul", "op": "Mul", "input": ["PartitionedCall/transpose_111", "PartitionedCall/onnx_tf_prefix_/model.15/m.0/cv2/act/Sigmoid"], "attr": {"T": {"type": "DT_FLOAT"}}}, {"name": "PartitionedCall/onnx_tf_prefix_/model.15/Concat", "op": "ConcatV2", "input": ["PartitionedCall/onnx_tf_prefix_/model.15/Split", "PartitionedCall/onnx_tf_prefix_/model.15/Split:1", "PartitionedCall/onnx_tf_prefix_/model.15/m.0/cv2/act/Mul", "PartitionedCall/onnx_tf_prefix_/model.15/Concat/axis"], "attr": {"T": {"type": "DT_FLOAT"}, "N": {"i": "3"}, "Tidx": {"type": "DT_INT32"}}}, {"name": "PartitionedCall/transpose_113", "op": "Transpose", "input": ["PartitionedCall/onnx_tf_prefix_/model.15/Concat", "PartitionedCall/transpose_113/perm"], "attr": {"T": {"type": "DT_FLOAT"}, "Tperm": {"type": "DT_INT32"}}}, {"name": "PartitionedCall/convolution_34", "op": "Conv2D", "input": ["PartitionedCall/transpose_113", "PartitionedCall/split_34"], "device": "/device:CPU:0", "attr": {"use_cudnn_on_gpu": {"b": true}, "data_format": {"s": "TkhXQw=="}, "dilations": {"list": {"i": ["1", "1", "1", "1"]}}, "explicit_paddings": {"list": {}}, "padding": {"s": "VkFMSUQ="}, "strides": {"list": {"i": ["1", "1", "1", "1"]}}, "T": {"type": "DT_FLOAT"}}}, {"name": "PartitionedCall/Add_34", "op": "AddV2", "input": ["PartitionedCall/convolution_34", "unknown_73"], "attr": {"T": {"type": "DT_FLOAT"}}}, {"name": "PartitionedCall/transpose_114", "op": "Transpose", "input": ["PartitionedCall/Add_34", "PartitionedCall/transpose_114/perm"], "attr": {"Tperm": {"type": "DT_INT32"}, "T": {"type": "DT_FLOAT"}}}, {"name": "PartitionedCall/onnx_tf_prefix_/model.15/cv2/act/Sigmoid", "op": "Sigmoid", "input": ["PartitionedCall/transpose_114"], "attr": {"T": {"type": "DT_FLOAT"}}}, {"name": "PartitionedCall/onnx_tf_prefix_/model.15/cv2/act/Mul", "op": "Mul", "input": ["PartitionedCall/transpose_114", "PartitionedCall/onnx_tf_prefix_/model.15/cv2/act/Sigmoid"], "attr": {"T": {"type": "DT_FLOAT"}}}, {"name": "PartitionedCall/Pad_22", "op": "Pad", "input": ["PartitionedCall/onnx_tf_prefix_/model.15/cv2/act/Mul", "PartitionedCall/Const_24"], "attr": {"Tpaddings": {"type": "DT_INT32"}, "T": {"type": "DT_FLOAT"}}}, {"name": "PartitionedCall/Pad_23", "op": "Pad", "input": ["PartitionedCall/onnx_tf_prefix_/model.15/cv2/act/Mul", "PartitionedCall/Const_25"], "attr": {"Tpaddings": {"type": "DT_INT32"}, "T": {"type": "DT_FLOAT"}}}, {"name": "PartitionedCall/Pad_21", "op": "Pad", "input": ["PartitionedCall/onnx_tf_prefix_/model.15/cv2/act/Mul", "PartitionedCall/Const_23"], "attr": {"T": {"type": "DT_FLOAT"}, "Tpaddings": {"type": "DT_INT32"}}}, {"name": "PartitionedCall/transpose_119", "op": "Transpose", "input": ["PartitionedCall/Pad_22", "PartitionedCall/transpose_119/perm"], "attr": {"T": {"type": "DT_FLOAT"}, "Tperm": {"type": "DT_INT32"}}}, {"name": "PartitionedCall/transpose_122", "op": "Transpose", "input": ["PartitionedCall/Pad_23", "PartitionedCall/transpose_122/perm"], "attr": {"T": {"type": "DT_FLOAT"}, "Tperm": {"type": "DT_INT32"}}}, {"name": "PartitionedCall/transpose_116", "op": "Transpose", "input": ["PartitionedCall/Pad_21", "PartitionedCall/transpose_116/perm"], "attr": {"Tperm": {"type": "DT_INT32"}, "T": {"type": "DT_FLOAT"}}}, {"name": "PartitionedCall/convolution_36", "op": "Conv2D", "input": ["PartitionedCall/transpose_119", "PartitionedCall/split_36"], "device": "/device:CPU:0", "attr": {"T": {"type": "DT_FLOAT"}, "padding": {"s": "VkFMSUQ="}, "explicit_paddings": {"list": {}}, "strides": {"list": {"i": ["1", "1", "1", "1"]}}, "dilations": {"list": {"i": ["1", "1", "1", "1"]}}, "use_cudnn_on_gpu": {"b": true}, "data_format": {"s": "TkhXQw=="}}}, {"name": "PartitionedCall/convolution_37", "op": "Conv2D", "input": ["PartitionedCall/transpose_122", "PartitionedCall/split_37"], "device": "/device:CPU:0", "attr": {"padding": {"s": "VkFMSUQ="}, "T": {"type": "DT_FLOAT"}, "explicit_paddings": {"list": {}}, "dilations": {"list": {"i": ["1", "1", "1", "1"]}}, "strides": {"list": {"i": ["1", "1", "1", "1"]}}, "use_cudnn_on_gpu": {"b": true}, "data_format": {"s": "TkhXQw=="}}}, {"name": "PartitionedCall/convolution_35", "op": "Conv2D", "input": ["PartitionedCall/transpose_116", "PartitionedCall/split_35"], "device": "/device:CPU:0", "attr": {"explicit_paddings": {"list": {}}, "dilations": {"list": {"i": ["1", "1", "1", "1"]}}, "use_cudnn_on_gpu": {"b": true}, "T": {"type": "DT_FLOAT"}, "strides": {"list": {"i": ["1", "2", "2", "1"]}}, "padding": {"s": "VkFMSUQ="}, "data_format": {"s": "TkhXQw=="}}}, {"name": "PartitionedCall/Add_36", "op": "AddV2", "input": ["PartitionedCall/convolution_36", "unknown_77"], "attr": {"T": {"type": "DT_FLOAT"}}}, {"name": "PartitionedCall/Add_37", "op": "AddV2", "input": ["PartitionedCall/convolution_37", "unknown_79"], "attr": {"T": {"type": "DT_FLOAT"}}}, {"name": "PartitionedCall/Add_35", "op": "AddV2", "input": ["PartitionedCall/convolution_35", "unknown_75"], "attr": {"T": {"type": "DT_FLOAT"}}}, {"name": "PartitionedCall/transpose_120", "op": "Transpose", "input": ["PartitionedCall/Add_36", "PartitionedCall/transpose_120/perm"], "attr": {"T": {"type": "DT_FLOAT"}, "Tperm": {"type": "DT_INT32"}}}, {"name": "PartitionedCall/transpose_123", "op": "Transpose", "input": ["PartitionedCall/Add_37", "PartitionedCall/transpose_123/perm"], "attr": {"Tperm": {"type": "DT_INT32"}, "T": {"type": "DT_FLOAT"}}}, {"name": "PartitionedCall/transpose_117", "op": "Transpose", "input": ["PartitionedCall/Add_35", "PartitionedCall/transpose_117/perm"], "attr": {"Tperm": {"type": "DT_INT32"}, "T": {"type": "DT_FLOAT"}}}, {"name": "PartitionedCall/onnx_tf_prefix_/model.22/cv2.0/cv2.0.0/act/Sigmoid", "op": "Sigmoid", "input": ["PartitionedCall/transpose_120"], "attr": {"T": {"type": "DT_FLOAT"}}}, {"name": "PartitionedCall/onnx_tf_prefix_/model.22/cv3.0/cv3.0.0/act/Sigmoid", "op": "Sigmoid", "input": ["PartitionedCall/transpose_123"], "attr": {"T": {"type": "DT_FLOAT"}}}, {"name": "PartitionedCall/onnx_tf_prefix_/model.16/act/Sigmoid", "op": "Sigmoid", "input": ["PartitionedCall/transpose_117"], "attr": {"T": {"type": "DT_FLOAT"}}}, {"name": "PartitionedCall/onnx_tf_prefix_/model.22/cv2.0/cv2.0.0/act/Mul", "op": "Mul", "input": ["PartitionedCall/transpose_120", "PartitionedCall/onnx_tf_prefix_/model.22/cv2.0/cv2.0.0/act/Sigmoid"], "attr": {"T": {"type": "DT_FLOAT"}}}, {"name": "PartitionedCall/onnx_tf_prefix_/model.22/cv3.0/cv3.0.0/act/Mul", "op": "Mul", "input": ["PartitionedCall/transpose_123", "PartitionedCall/onnx_tf_prefix_/model.22/cv3.0/cv3.0.0/act/Sigmoid"], "attr": {"T": {"type": "DT_FLOAT"}}}, {"name": "PartitionedCall/onnx_tf_prefix_/model.16/act/Mul", "op": "Mul", "input": ["PartitionedCall/transpose_117", "PartitionedCall/onnx_tf_prefix_/model.16/act/Sigmoid"], "attr": {"T": {"type": "DT_FLOAT"}}}, {"name": "PartitionedCall/Pad_24", "op": "Pad", "input": ["PartitionedCall/onnx_tf_prefix_/model.22/cv2.0/cv2.0.0/act/Mul", "PartitionedCall/Const_26"], "attr": {"Tpaddings": {"type": "DT_INT32"}, "T": {"type": "DT_FLOAT"}}}, {"name": "PartitionedCall/Pad_25", "op": "Pad", "input": ["PartitionedCall/onnx_tf_prefix_/model.22/cv3.0/cv3.0.0/act/Mul", "PartitionedCall/Const_27"], "attr": {"Tpaddings": {"type": "DT_INT32"}, "T": {"type": "DT_FLOAT"}}}, {"name": "PartitionedCall/onnx_tf_prefix_/model.17/Concat", "op": "ConcatV2", "input": ["PartitionedCall/onnx_tf_prefix_/model.16/act/Mul", "PartitionedCall/onnx_tf_prefix_/model.12/cv2/act/Mul", "PartitionedCall/onnx_tf_prefix_/model.17/Concat/axis"], "attr": {"T": {"type": "DT_FLOAT"}, "Tidx": {"type": "DT_INT32"}, "N": {"i": "2"}}}, {"name": "PartitionedCall/transpose_125", "op": "Transpose", "input": ["PartitionedCall/Pad_24", "PartitionedCall/transpose_125/perm"], "attr": {"Tperm": {"type": "DT_INT32"}, "T": {"type": "DT_FLOAT"}}}, {"name": "PartitionedCall/transpose_128", "op": "Transpose", "input": ["PartitionedCall/Pad_25", "PartitionedCall/transpose_128/perm"], "attr": {"T": {"type": "DT_FLOAT"}, "Tperm": {"type": "DT_INT32"}}}, {"name": "PartitionedCall/transpose_131", "op": "Transpose", "input": ["PartitionedCall/onnx_tf_prefix_/model.17/Concat", "PartitionedCall/transpose_131/perm"], "attr": {"Tperm": {"type": "DT_INT32"}, "T": {"type": "DT_FLOAT"}}}, {"name": "PartitionedCall/convolution_38", "op": "Conv2D", "input": ["PartitionedCall/transpose_125", "PartitionedCall/split_38"], "device": "/device:CPU:0", "attr": {"strides": {"list": {"i": ["1", "1", "1", "1"]}}, "data_format": {"s": "TkhXQw=="}, "explicit_paddings": {"list": {}}, "dilations": {"list": {"i": ["1", "1", "1", "1"]}}, "use_cudnn_on_gpu": {"b": true}, "padding": {"s": "VkFMSUQ="}, "T": {"type": "DT_FLOAT"}}}, {"name": "PartitionedCall/convolution_39", "op": "Conv2D", "input": ["PartitionedCall/transpose_128", "PartitionedCall/split_39"], "device": "/device:CPU:0", "attr": {"dilations": {"list": {"i": ["1", "1", "1", "1"]}}, "explicit_paddings": {"list": {}}, "padding": {"s": "VkFMSUQ="}, "use_cudnn_on_gpu": {"b": true}, "T": {"type": "DT_FLOAT"}, "data_format": {"s": "TkhXQw=="}, "strides": {"list": {"i": ["1", "1", "1", "1"]}}}}, {"name": "PartitionedCall/convolution_40", "op": "Conv2D", "input": ["PartitionedCall/transpose_131", "PartitionedCall/split_40"], "device": "/device:CPU:0", "attr": {"dilations": {"list": {"i": ["1", "1", "1", "1"]}}, "use_cudnn_on_gpu": {"b": true}, "strides": {"list": {"i": ["1", "1", "1", "1"]}}, "data_format": {"s": "TkhXQw=="}, "T": {"type": "DT_FLOAT"}, "padding": {"s": "VkFMSUQ="}, "explicit_paddings": {"list": {}}}}, {"name": "PartitionedCall/Add_38", "op": "AddV2", "input": ["PartitionedCall/convolution_38", "unknown_81"], "attr": {"T": {"type": "DT_FLOAT"}}}, {"name": "PartitionedCall/Add_39", "op": "AddV2", "input": ["PartitionedCall/convolution_39", "unknown_83"], "attr": {"T": {"type": "DT_FLOAT"}}}, {"name": "PartitionedCall/Add_40", "op": "AddV2", "input": ["PartitionedCall/convolution_40", "unknown_85"], "attr": {"T": {"type": "DT_FLOAT"}}}, {"name": "PartitionedCall/transpose_126", "op": "Transpose", "input": ["PartitionedCall/Add_38", "PartitionedCall/transpose_126/perm"], "attr": {"T": {"type": "DT_FLOAT"}, "Tperm": {"type": "DT_INT32"}}}, {"name": "PartitionedCall/transpose_129", "op": "Transpose", "input": ["PartitionedCall/Add_39", "PartitionedCall/transpose_129/perm"], "attr": {"T": {"type": "DT_FLOAT"}, "Tperm": {"type": "DT_INT32"}}}, {"name": "PartitionedCall/transpose_132", "op": "Transpose", "input": ["PartitionedCall/Add_40", "PartitionedCall/transpose_132/perm"], "attr": {"Tperm": {"type": "DT_INT32"}, "T": {"type": "DT_FLOAT"}}}, {"name": "PartitionedCall/onnx_tf_prefix_/model.22/cv2.0/cv2.0.1/act/Sigmoid", "op": "Sigmoid", "input": ["PartitionedCall/transpose_126"], "attr": {"T": {"type": "DT_FLOAT"}}}, {"name": "PartitionedCall/onnx_tf_prefix_/model.22/cv3.0/cv3.0.1/act/Sigmoid", "op": "Sigmoid", "input": ["PartitionedCall/transpose_129"], "attr": {"T": {"type": "DT_FLOAT"}}}, {"name": "PartitionedCall/onnx_tf_prefix_/model.18/cv1/act/Sigmoid", "op": "Sigmoid", "input": ["PartitionedCall/transpose_132"], "attr": {"T": {"type": "DT_FLOAT"}}}, {"name": "PartitionedCall/onnx_tf_prefix_/model.22/cv2.0/cv2.0.1/act/Mul", "op": "Mul", "input": ["PartitionedCall/transpose_126", "PartitionedCall/onnx_tf_prefix_/model.22/cv2.0/cv2.0.1/act/Sigmoid"], "attr": {"T": {"type": "DT_FLOAT"}}}, {"name": "PartitionedCall/onnx_tf_prefix_/model.22/cv3.0/cv3.0.1/act/Mul", "op": "Mul", "input": ["PartitionedCall/transpose_129", "PartitionedCall/onnx_tf_prefix_/model.22/cv3.0/cv3.0.1/act/Sigmoid"], "attr": {"T": {"type": "DT_FLOAT"}}}, {"name": "PartitionedCall/onnx_tf_prefix_/model.18…
 "attr": {"T": {"type": "DT_FLOAT"}, "Tperm": {"type": "DT_INT32"}}}, {"name": "PartitionedCall/transpose_171", "op": "Transpose", "input": ["PartitionedCall/Add_54", "PartitionedCall/transpose_171/perm"], "attr": {"Tperm": {"type": "DT_INT32"}, "T": {"type": "DT_FLOAT"}}}, {"name": "PartitionedCall/convolution_54", "op": "Conv2D", "input": ["PartitionedCall/transpose_173", "PartitionedCall/split_54"], "device": "/device:CPU:0", "attr": {"padding": {"s": "VkFMSUQ="}, "strides": {"list": {"i": ["1", "1", "1", "1"]}}, "use_cudnn_on_gpu": {"b": true}, "dilations": {"list": {"i": ["1", "1", "1", "1"]}}, "data_format": {"s": "TkhXQw=="}, "explicit_paddings": {"list": {}}, "T": {"type": "DT_FLOAT"}}}, {"name": "PartitionedCall/onnx_tf_prefix_/model.22/Concat_1", "op": "ConcatV2", "input": ["PartitionedCall/transpose_168", "PartitionedCall/transpose_171", "PartitionedCall/onnx_tf_prefix_/model.22/Concat_1/axis"], "attr": {"T": {"type": "DT_FLOAT"}, "Tidx": {"type": "DT_INT32"}, "N": {"i": "2"}}}, {"name": "PartitionedCall/Add_55", "op": "AddV2", "input": ["PartitionedCall/convolution_54", "unknown_114"], "attr": {"T": {"type": "DT_FLOAT"}}}, {"name": "PartitionedCall/onnx_tf_prefix_/model.22/Reshape_1", "op": "Reshape", "input": ["PartitionedCall/onnx_tf_prefix_/model.22/Concat_1", "PartitionedCall/add_56"], "attr": {"T": {"type": "DT_FLOAT"}, "Tshape": {"type": "DT_INT64"}}}, {"name": "PartitionedCall/transpose_174", "op": "Transpose", "input": ["PartitionedCall/Add_55", "PartitionedCall/transpose_174/perm"], "attr": {"T": {"type": "DT_FLOAT"}, "Tperm": {"type": "DT_INT32"}}}, {"name": "PartitionedCall/onnx_tf_prefix_/model.21/m.0/cv1/act/Sigmoid", "op": "Sigmoid", "input": ["PartitionedCall/transpose_174"], "attr": {"T": {"type": "DT_FLOAT"}}}, {"name": "PartitionedCall/onnx_tf_prefix_/model.21/m.0/cv1/act/Mul", "op": "Mul", "input": ["PartitionedCall/transpose_174", "PartitionedCall/onnx_tf_prefix_/model.21/m.0/cv1/act/Sigmoid"], "attr": {"T": {"type": "DT_FLOAT"}}}, {"name": "PartitionedCall/Pad_34", "op": "Pad", "input": ["PartitionedCall/onnx_tf_prefix_/model.21/m.0/cv1/act/Mul", "PartitionedCall/Const_38"], "attr": {"Tpaddings": {"type": "DT_INT32"}, "T": {"type": "DT_FLOAT"}}}, {"name": "PartitionedCall/transpose_176", "op": "Transpose", "input": ["PartitionedCall/Pad_34", "PartitionedCall/transpose_176/perm"], "attr": {"Tperm": {"type": "DT_INT32"}, "T": {"type": "DT_FLOAT"}}}, {"name": "PartitionedCall/convolution_55", "op": "Conv2D", "input": ["PartitionedCall/transpose_176", "PartitionedCall/split_55"], "device": "/device:CPU:0", "attr": {"strides": {"list": {"i": ["1", "1", "1", "1"]}}, "T": {"type": "DT_FLOAT"}, "padding": {"s": "VkFMSUQ="}, "use_cudnn_on_gpu": {"b": true}, "dilations": {"list": {"i": ["1", "1", "1", "1"]}}, "explicit_paddings": {"list": {}}, "data_format": {"s": "TkhXQw=="}}}, {"name": "PartitionedCall/Add_57", "op": "AddV2", "input": ["PartitionedCall/convolution_55", "unknown_116"], "attr": {"T": {"type": "DT_FLOAT"}}}, {"name": "PartitionedCall/transpose_177", "op": "Transpose", "input": ["PartitionedCall/Add_57", "PartitionedCall/transpose_177/perm"], "attr": {"Tperm": {"type": "DT_INT32"}, "T": {"type": "DT_FLOAT"}}}, {"name": "PartitionedCall/onnx_tf_prefix_/model.21/m.0/cv2/act/Sigmoid", "op": "Sigmoid", "input": ["PartitionedCall/transpose_177"], "attr": {"T": {"type": "DT_FLOAT"}}}, {"name": "PartitionedCall/onnx_tf_prefix_/model.21/m.0/cv2/act/Mul", "op": "Mul", "input": ["PartitionedCall/transpose_177", "PartitionedCall/onnx_tf_prefix_/model.21/m.0/cv2/act/Sigmoid"], "attr": {"T": {"type": "DT_FLOAT"}}}, {"name": "PartitionedCall/onnx_tf_prefix_/model.21/Concat", "op": "ConcatV2", "input": ["PartitionedCall/onnx_tf_prefix_/model.21/Split", "PartitionedCall/onnx_tf_prefix_/model.21/Split:1", "PartitionedCall/onnx_tf_prefix_/model.21/m.0/cv2/act/Mul", "PartitionedCall/onnx_tf_prefix_/model.21/Concat/axis"], "attr": {"N": {"i": "3"}, "Tidx": {"type": "DT_INT32"}, "T": {"type": "DT_FLOAT"}}}, {"name": "PartitionedCall/transpose_179", "op": "Transpose", "input": ["PartitionedCall/onnx_tf_prefix_/model.21/Concat", "PartitionedCall/transpose_179/perm"], "attr": {"Tperm": {"type": "DT_INT32"}, "T": {"type": "DT_FLOAT"}}}, {"name": "PartitionedCall/convolution_56", "op": "Conv2D", "input": ["PartitionedCall/transpose_179", "PartitionedCall/split_56"], "device": "/device:CPU:0", "attr": {"data_format": {"s": "TkhXQw=="}, "dilations": {"list": {"i": ["1", "1", "1", "1"]}}, "strides": {"list": {"i": ["1", "1", "1", "1"]}}, "use_cudnn_on_gpu": {"b": true}, "explicit_paddings": {"list": {}}, "T": {"type": "DT_FLOAT"}, "padding": {"s": "VkFMSUQ="}}}, {"name": "PartitionedCall/Add_58", "op": "AddV2", "input": ["PartitionedCall/convolution_56", "unknown_118"], "attr": {"T": {"type": "DT_FLOAT"}}}, {"name": "PartitionedCall/transpose_180", "op": "Transpose", "input": ["PartitionedCall/Add_58", "PartitionedCall/transpose_180/perm"], "attr": {"Tperm": {"type": "DT_INT32"}, "T": {"type": "DT_FLOAT"}}}, {"name": "PartitionedCall/onnx_tf_prefix_/model.21/cv2/act/Sigmoid", "op": "Sigmoid", "input": ["PartitionedCall/transpose_180"], "attr": {"T": {"type": "DT_FLOAT"}}}, {"name": "PartitionedCall/onnx_tf_prefix_/model.21/cv2/act/Mul", "op": "Mul", "input": ["PartitionedCall/transpose_180", "PartitionedCall/onnx_tf_prefix_/model.21/cv2/act/Sigmoid"], "attr": {"T": {"type": "DT_FLOAT"}}}, {"name": "PartitionedCall/Pad_35", "op": "Pad", "input": ["PartitionedCall/onnx_tf_prefix_/model.21/cv2/act/Mul", "PartitionedCall/Const_39"], "attr": {"T": {"type": "DT_FLOAT"}, "Tpaddings": {"type": "DT_INT32"}}}, {"name": "PartitionedCall/Pad_36", "op": "Pad", "input": ["PartitionedCall/onnx_tf_prefix_/model.21/cv2/act/Mul", "PartitionedCall/Const_40"], "attr": {"Tpaddings": {"type": "DT_INT32"}, "T": {"type": "DT_FLOAT"}}}, {"name": "PartitionedCall/transpose_182", "op": "Transpose", "input": ["PartitionedCall/Pad_35", "PartitionedCall/transpose_182/perm"], "attr": {"Tperm": {"type": "DT_INT32"}, "T": {"type": "DT_FLOAT"}}}, {"name": "PartitionedCall/transpose_185", "op": "Transpose", "input": ["PartitionedCall/Pad_36", "PartitionedCall/transpose_185/perm"], "attr": {"T": {"type": "DT_FLOAT"}, "Tperm": {"type": "DT_INT32"}}}, {"name": "PartitionedCall/convolution_57", "op": "Conv2D", "input": ["PartitionedCall/transpose_182", "PartitionedCall/split_57"], "device": "/device:CPU:0", "attr": {"T": {"type": "DT_FLOAT"}, "use_cudnn_on_gpu": {"b": true}, "strides": {"list": {"i": ["1", "1", "1", "1"]}}, "padding": {"s": "VkFMSUQ="}, "dilations": {"list": {"i": ["1", "1", "1", "1"]}}, "explicit_paddings": {"list": {}}, "data_format": {"s": "TkhXQw=="}}}, {"name": "PartitionedCall/convolution_58", "op": "Conv2D", "input": ["PartitionedCall/transpose_185", "PartitionedCall/split_58"], "device": "/device:CPU:0", "attr": {"explicit_paddings": {"list": {}}, "padding": {"s": "VkFMSUQ="}, "dilations": {"list": {"i": ["1", "1", "1", "1"]}}, "data_format": {"s": "TkhXQw=="}, "T": {"type": "DT_FLOAT"}, "strides": {"list": {"i": ["1", "1", "1", "1"]}}, "use_cudnn_on_gpu": {"b": true}}}, {"name": "PartitionedCall/Add_59", "op": "AddV2", "input": ["PartitionedCall/convolution_57", "unknown_120"], "attr": {"T": {"type": "DT_FLOAT"}}}, {"name": "PartitionedCall/Add_60", "op": "AddV2", "input": ["PartitionedCall/convolution_58", "unknown_122"], "attr": {"T": {"type": "DT_FLOAT"}}}, {"name": "PartitionedCall/transpose_183", "op": "Transpose", "input": ["PartitionedCall/Add_59", "PartitionedCall/transpose_183/perm"], "attr": {"Tperm": {"type": "DT_INT32"}, "T": {"type": "DT_FLOAT"}}}, {"name": "PartitionedCall/transpose_186", "op": "Transpose", "input": ["PartitionedCall/Add_60", "PartitionedCall/transpose_186/perm"], "attr": {"T": {"type": "DT_FLOAT"}, "Tperm": {"type": "DT_INT32"}}}, {"name": "PartitionedCall/onnx_tf_prefix_/model.22/cv2.2/cv2.2.0/act/Sigmoid", "op": "Sigmoid", "input": ["PartitionedCall/transpose_183"], "attr": {"T": {"type": "DT_FLOAT"}}}, {"name": "PartitionedCall/onnx_tf_prefix_/model.22/cv3.2/cv3.2.0/act/Sigmoid", "op": "Sigmoid", "input": ["PartitionedCall/transpose_186"], "attr": {"T": {"type": "DT_FLOAT"}}}, {"name": "PartitionedCall/onnx_tf_prefix_/model.22/cv2.2/cv2.2.0/act/Mul", "op": "Mul", "input": ["PartitionedCall/transpose_183", "PartitionedCall/onnx_tf_prefix_/model.22/cv2.2/cv2.2.0/act/Sigmoid"], "attr": {"T": {"type": "DT_FLOAT"}}}, {"name": "PartitionedCall/onnx_tf_prefix_/model.22/cv3.2/cv3.2.0/act/Mul", "op": "Mul", "input": ["PartitionedCall/transpose_186", "PartitionedCall/onnx_tf_prefix_/model.22/cv3.2/cv3.2.0/act/Sigmoid"], "attr": {"T": {"type": "DT_FLOAT"}}}, {"name": "PartitionedCall/Pad_37", "op": "Pad", "input": ["PartitionedCall/onnx_tf_prefix_/model.22/cv2.2/cv2.2.0/act/Mul", "PartitionedCall/Const_41"], "attr": {"T": {"type": "DT_FLOAT"}, "Tpaddings": {"type": "DT_INT32"}}}, {"name": "PartitionedCall/Pad_38", "op": "Pad", "input": ["PartitionedCall/onnx_tf_prefix_/model.22/cv3.2/cv3.2.0/act/Mul", "PartitionedCall/Const_42"], "attr": {"Tpaddings": {"type": "DT_INT32"}, "T": {"type": "DT_FLOAT"}}}, {"name": "PartitionedCall/transpose_188", "op": "Transpose", "input": ["PartitionedCall/Pad_37", "PartitionedCall/transpose_188/perm"], "attr": {"T": {"type": "DT_FLOAT"}, "Tperm": {"type": "DT_INT32"}}}, {"name": "PartitionedCall/transpose_191", "op": "Transpose", "input": ["PartitionedCall/Pad_38", "PartitionedCall/transpose_191/perm"], "attr": {"Tperm": {"type": "DT_INT32"}, "T": {"type": "DT_FLOAT"}}}, {"name": "PartitionedCall/convolution_59", "op": "Conv2D", "input": ["PartitionedCall/transpose_188", "PartitionedCall/split_59"], "device": "/device:CPU:0", "attr": {"padding": {"s": "VkFMSUQ="}, "T": {"type": "DT_FLOAT"}, "strides": {"list": {"i": ["1", "1", "1", "1"]}}, "dilations": {"list": {"i": ["1", "1", "1", "1"]}}, "use_cudnn_on_gpu": {"b": true}, "data_format": {"s": "TkhXQw=="}, "explicit_paddings": {"list": {}}}}, {"name": "PartitionedCall/convolution_60", "op": "Conv2D", "input": ["PartitionedCall/transpose_191", "PartitionedCall/split_60"], "device": "/device:CPU:0", "attr": {"strides": {"list": {"i": ["1", "1", "1", "1"]}}, "use_cudnn_on_gpu": {"b": true}, "explicit_paddings": {"list": {}}, "T": {"type": "DT_FLOAT"}, "dilations": {"list": {"i": ["1", "1", "1", "1"]}}, "data_format": {"s": "TkhXQw=="}, "padding": {"s": "VkFMSUQ="}}}, {"name": "PartitionedCall/Add_61", "op": "AddV2", "input": ["PartitionedCall/convolution_59", "unknown_124"], "attr": {"T": {"type": "DT_FLOAT"}}}, {"name": "PartitionedCall/Add_62", "op": "AddV2", "input": ["PartitionedCall/convolution_60", "unknown_126"], "attr": {"T": {"type": "DT_FLOAT"}}}, {"name": "PartitionedCall/transpose_189", "op": "Transpose", "input": ["PartitionedCall/Add_61", "PartitionedCall/transpose_189/perm"], "attr": {"Tperm": {"type": "DT_INT32"}, "T": {"type": "DT_FLOAT"}}}, {"name": "PartitionedCall/transpose_192", "op": "Transpose", "input": ["PartitionedCall/Add_62", "PartitionedCall/transpose_192/perm"], "attr": {"T": {"type": "DT_FLOAT"}, "Tperm": {"type": "DT_INT32"}}}, {"name": "PartitionedCall/onnx_tf_prefix_/model.22/cv2.2/cv2.2.1/act/Sigmoid", "op": "Sigmoid", "input": ["PartitionedCall/transpose_189"], "attr": {"T": {"type": "DT_FLOAT"}}}, {"name": "PartitionedCall/onnx_tf_prefix_/model.22/cv3.2/cv3.2.1/act/Sigmoid", "op": "Sigmoid", "input": ["PartitionedCall/transpose_192"], "attr": {"T": {"type": "DT_FLOAT"}}}, {"name": "PartitionedCall/onnx_tf_prefix_/model.22/cv2.2/cv2.2.1/act/Mul", "op": "Mul", "input": ["PartitionedCall/transpose_189", "PartitionedCall/onnx_tf_prefix_/model.22/cv2.2/cv2.2.1/act/Sigmoid"], "attr": {"T": {"type": "DT_FLOAT"}}}, {"name": "PartitionedCall/onnx_tf_prefix_/model.22/cv3.2/cv3.2.1/act/Mul", "op": "Mul", "input": ["PartitionedCall/transpose_192", "PartitionedCall/onnx_tf_prefix_/model.22/cv3.2/cv3.2.1/act/Sigmoid"], "attr": {"T": {"type": "DT_FLOAT"}}}, {"name": "PartitionedCall/transpose_194", "op": "Transpose", "input": ["PartitionedCall/onnx_tf_prefix_/model.22/cv2.2/cv2.2.1/act/Mul", "PartitionedCall/transpose_194/perm"], "attr": {"T": {"type": "DT_FLOAT"}, "Tperm": {"type": "DT_INT32"}}}, {"name": "PartitionedCall/transpose_197", "op": "Transpose", "input": ["PartitionedCall/onnx_tf_prefix_/model.22/cv3.2/cv3.2.1/act/Mul", "PartitionedCall/transpose_197/perm"], "attr": {"Tperm": {"type": "DT_INT32"}, "T": {"type": "DT_FLOAT"}}}, {"name": "PartitionedCall/convolution_61", "op": "Conv2D", "input": ["PartitionedCall/transpose_194", "PartitionedCall/split_61"], "device": "/device:CPU:0", "attr": {"strides": {"list": {"i": ["1", "1", "1", "1"]}}, "padding": {"s": "VkFMSUQ="}, "use_cudnn_on_gpu": {"b": true}, "dilations": {"list": {"i": ["1", "1", "1", "1"]}}, "T": {"type": "DT_FLOAT"}, "explicit_paddings": {"list": {}}, "data_format": {"s": "TkhXQw=="}}}, {"name": "PartitionedCall/convolution_62", "op": "Conv2D", "input": ["PartitionedCall/transpose_197", "PartitionedCall/split_62"], "device": "/device:CPU:0", "attr": {"padding": {"s": "VkFMSUQ="}, "strides": {"list": {"i": ["1", "1", "1", "1"]}}, "dilations": {"list": {"i": ["1", "1", "1", "1"]}}, "use_cudnn_on_gpu": {"b": true}, "explicit_paddings": {"list": {}}, "data_format": {"s": "TkhXQw=="}, "T": {"type": "DT_FLOAT"}}}, {"name": "PartitionedCall/Add_63", "op": "AddV2", "input": ["PartitionedCall/convolution_61", "unknown_128"], "attr": {"T": {"type": "DT_FLOAT"}}}, {"name": "PartitionedCall/Add_64", "op": "AddV2", "input": ["PartitionedCall/convolution_62", "unknown_130"], "attr": {"T": {"type": "DT_FLOAT"}}}, {"name": "PartitionedCall/transpose_195", "op": "Transpose", "input": ["PartitionedCall/Add_63", "PartitionedCall/transpose_195/perm"], "attr": {"Tperm": {"type": "DT_INT32"}, "T": {"type": "DT_FLOAT"}}}, {"name": "PartitionedCall/transpose_198", "op": "Transpose", "input": ["PartitionedCall/Add_64", "PartitionedCall/transpose_198/perm"], "attr": {"T": {"type": "DT_FLOAT"}, "Tperm": {"type": "DT_INT32"}}}, {"name": "PartitionedCall/onnx_tf_prefix_/model.22/Concat_2", "op": "ConcatV2", "input": ["PartitionedCall/transpose_195", "PartitionedCall/transpose_198", "PartitionedCall/onnx_tf_prefix_/model.22/Concat_2/axis"], "attr": {"N": {"i": "2"}, "T": {"type": "DT_FLOAT"}, "Tidx": {"type": "DT_INT32"}}}, {"name": "PartitionedCall/onnx_tf_prefix_/model.22/Reshape_2", "op": "Reshape", "input": ["PartitionedCall/onnx_tf_prefix_/model.22/Concat_2", "PartitionedCall/add_65"], "attr": {"Tshape": {"type": "DT_INT64"}, "T": {"type": "DT_FLOAT"}}}, {"name": "PartitionedCall/onnx_tf_prefix_/model.22/Concat_3", "op": "ConcatV2", "input": ["PartitionedCall/onnx_tf_prefix_/model.22/Reshape", "PartitionedCall/onnx_tf_prefix_/model.22/Reshape_1", "PartitionedCall/onnx_tf_prefix_/model.22/Reshape_2", "PartitionedCall/onnx_tf_prefix_/model.22/Concat_3/axis"], "attr": {"N": {"i": "3"}, "T": {"type": "DT_FLOAT"}, "Tidx": {"type": "DT_INT32"}}}, {"name": "PartitionedCall/onnx_tf_prefix_/model.22/Split", "op": "SplitV", "input": ["PartitionedCall/onnx_tf_prefix_/model.22/Concat_3", "unknown_131", "PartitionedCall/onnx_tf_prefix_/model.22/Split/split_dim"], "attr": {"num_split": {"i": "2"}, "Tlen": {"type": "DT_INT64"}, "T": {"type": "DT_FLOAT"}}}, {"name": "PartitionedCall/onnx_tf_prefix_/model.22/dfl/Reshape", "op": "Reshape", "input": ["PartitionedCall/onnx_tf_prefix_/model.22/Split", "PartitionedCall/add_66"], "attr": {"T": {"type": "DT_FLOAT"}, "Tshape": {"type": "DT_INT64"}}}, {"name": "PartitionedCall/onnx_tf_prefix_/model.22/Sigmoid", "op": "Sigmoid", "input": ["PartitionedCall/onnx_tf_prefix_/model.22/Split:1"], "attr": {"T": {"type": "DT_FLOAT"}}}, {"name": "PartitionedCall/onnx_tf_prefix_/model.22/dfl/Transpose", "op": "Transpose", "input": ["PartitionedCall/onnx_tf_prefix_/model.22/dfl/Reshape", "PartitionedCall/onnx_tf_prefix_/model.22/dfl/Transpose/perm"], "attr": {"T": {"type": "DT_FLOAT"}, "Tperm": {"type": "DT_INT32"}}}, {"name": "PartitionedCall/transpose_199", "op": "Transpose", "input": ["PartitionedCall/onnx_tf_prefix_/model.22/dfl/Transpose", "PartitionedCall/concat_63"], "attr": {"Tperm": {"type": "DT_INT32"}, "T": {"type": "DT_FLOAT"}}}, {"name": "PartitionedCall/Softmax", "op": "Softmax", "input": ["PartitionedCall/transpose_199"], "attr": {"T": {"type": "DT_FLOAT"}}}, {"name": "PartitionedCall/onnx_tf_prefix_/model.22/dfl/Softmax", "op": "Transpose", "input": ["PartitionedCall/Softmax", "PartitionedCall/concat_64"], "attr": {"T": {"type": "DT_FLOAT"}, "Tperm": {"type": "DT_INT32"}}}, {"name": "PartitionedCall/transpose_201", "op": "Transpose", "input": ["PartitionedCall/onnx_tf_prefix_/model.22/dfl/Softmax", "PartitionedCall/transpose_201/perm"], "attr": {"Tperm": {"type": "DT_INT32"}, "T": {"type": "DT_FLOAT"}}}, {"name": "PartitionedCall/convolution_63", "op": "Conv2D", "input": ["PartitionedCall/transpose_201", "PartitionedCall/split_63"], "device": "/device:CPU:0", "attr": {"padding": {"s": "VkFMSUQ="}, "explicit_paddings": {"list": {}}, "dilations": {"list": {"i": ["1", "1", "1", "1"]}}, "data_format": {"s": "TkhXQw=="}, "T": {"type": "DT_FLOAT"}, "use_cudnn_on_gpu": {"b": true}, "strides": {"list": {"i": ["1", "1", "1", "1"]}}}}, {"name": "PartitionedCall/transpose_202", "op": "Transpose", "input": ["PartitionedCall/convolution_63", "PartitionedCall/transpose_202/perm"], "attr": {"Tperm": {"type": "DT_INT32"}, "T": {"type": "DT_FLOAT"}}}, {"name": "PartitionedCall/onnx_tf_prefix_/model.22/dfl/Reshape_1", "op": "Reshape", "input": ["PartitionedCall/transpose_202", "PartitionedCall/add_67"], "attr": {"T": {"type": "DT_FLOAT"}, "Tshape": {"type": "DT_INT64"}}}, {"name": "PartitionedCall/onnx_tf_prefix_/model.22/Slice_1", "op": "StridedSlice", "input": ["PartitionedCall/onnx_tf_prefix_/model.22/dfl/Reshape_1", "PartitionedCall/SparseToDense_7", "PartitionedCall/SelectV2_7", "PartitionedCall/ones_1"], "attr": {"shrink_axis_mask": {"i": "0"}, "Index": {"type": "DT_INT64"}, "ellipsis_mask": {"i": "0"}, "end_mask": {"i": "0"}, "T": {"type": "DT_FLOAT"}, "begin_mask": {"i": "0"}, "new_axis_mask": {"i": "0"}}}, {"name": "PartitionedCall/onnx_tf_prefix_/model.22/Slice", "op": "StridedSlice", "input": ["PartitionedCall/onnx_tf_prefix_/model.22/dfl/Reshape_1", "PartitionedCall/SparseToDense_5", "PartitionedCall/SelectV2_3", "PartitionedCall/ones"], "attr": {"new_axis_mask": {"i": "0"}, "T": {"type": "DT_FLOAT"}, "begin_mask": {"i": "0"}, "shrink_axis_mask": {"i": "0"}, "end_mask": {"i": "0"}, "ellipsis_mask": {"i": "0"}, "Index": {"type": "DT_INT64"}}}, {"name": "PartitionedCall/onnx_tf_prefix_/model.22/Add_1", "op": "AddV2", "input": ["unknown_140", "PartitionedCall/onnx_tf_prefix_/model.22/Slice_1"], "attr": {"T": {"type": "DT_FLOAT"}}}, {"name": "PartitionedCall/onnx_tf_prefix_/model.22/Sub", "op": "Sub", "input": ["unknown_139", "PartitionedCall/onnx_tf_prefix_/model.22/Slice"], "attr": {"T": {"type": "DT_FLOAT"}}}, {"name": "PartitionedCall/onnx_tf_prefix_/model.22/Add_2", "op": "AddV2", "input": ["PartitionedCall/onnx_tf_prefix_/model.22/Sub", "PartitionedCall/onnx_tf_prefix_/model.22/Add_1"], "attr": {"T": {"type": "DT_FLOAT"}}}, {"name": "PartitionedCall/onnx_tf_prefix_/model.22/Sub_1", "op": "Sub", "input": ["PartitionedCall/onnx_tf_prefix_/model.22/Add_1", "PartitionedCall/onnx_tf_prefix_/model.22/Sub"], "attr": {"T": {"type": "DT_FLOAT"}}}, {"name": "PartitionedCall/onnx_tf_prefix_/model.22/Div_1", "op": "Mul", "input": ["PartitionedCall/onnx_tf_prefix_/model.22/Add_2", "ConstantFolding/PartitionedCall/onnx_tf_prefix_/model.22/Div_1_recip"], "attr": {"T": {"type": "DT_FLOAT"}}}, {"name": "PartitionedCall/onnx_tf_prefix_/model.22/Concat_4", "op": "ConcatV2", "input": ["PartitionedCall/onnx_tf_prefix_/model.22/Div_1", "PartitionedCall/onnx_tf_prefix_/model.22/Sub_1", "PartitionedCall/onnx_tf_prefix_/model.22/Concat_4/axis"], "attr": {"N": {"i": "2"}, "T": {"type": "DT_FLOAT"}, "Tidx": {"type": "DT_INT32"}}}, {"name": "PartitionedCall/onnx_tf_prefix_/model.22/Mul_2", "op": "Mul", "input": ["PartitionedCall/onnx_tf_prefix_/model.22/Concat_4", "unknown_142"], "attr": {"T": {"type": "DT_FLOAT"}}}, {"name": "PartitionedCall/onnx_tf_prefix_/model.22/Concat_5", "op": "ConcatV2", "input": ["PartitionedCall/onnx_tf_prefix_/model.22/Mul_2", "PartitionedCall/onnx_tf_prefix_/model.22/Sigmoid", "PartitionedCall/onnx_tf_prefix_/model.22/Concat_5/axis"], "attr": {"Tidx": {"type": "DT_INT32"}, "N": {"i": "2"}, "T": {"type": "DT_FLOAT"}}}, {"name": "Identity", "op": "Identity", "input": ["PartitionedCall/onnx_tf_prefix_/model.22/Concat_5"], "attr": {"T": {"type": "DT_FLOAT"}}}], "library": {}, "versions": {"producer": 1395}}, "weightsManifest": [{"paths": ["group1-shard1of3.bin", "group1-shard2of3.bin", "group1-shard3of3.bin"], "weights": [{"name": "ConstantFolding/PartitionedCall/onnx_tf_prefix_/model.22/Div_1_recip", "shape": [], "dtype": "float32"}, {"name": "unknown_140", "shape": [1, 2, 3549], "dtype": "float32"}, {"name": "PartitionedCall/SelectV2_5", "shape": [1], "dtype": "int32"}, {"name": "PartitionedCall/zeros_6", "shape": [], "dtype": "int32"}, {"name": "PartitionedCall/Const_49", "shape": [], "dtype": "int32"}, {"name": "PartitionedCall/Shape_11", "shape": [3], "dtype": "int32"}, {"name": "PartitionedCall/ExpandDims_1", "shape": [1, 1], "dtype": "int32"}, {"name": "PartitionedCall/Cast_12", "shape": [1], "dtype": "int32"}, {"name": "PartitionedCall/SelectV2_6", "shape": [1], "dtype": "int32"}, {"name": "PartitionedCall/Const_48", "shape": [], "dtype": "int32"}, {"name": "PartitionedCall/ones_1", "shape": [3], "dtype": "int32"}, {"name": "unknown_139", "shape": [1, 2, 3549], "dtype": "float32"}, {"name": "unknown_132", "shape": [4], "dtype": "int32"}, {"name": "PartitionedCall/Where_3", "shape": [0, 1], "dtype": "int32"}, {"name": "PartitionedCall/Cast_7", "shape": [1], "dtype": "int32"}, {"name": "PartitionedCall/GatherV2_3", "shape": [0], "dtype": "int32"}, {"name": "PartitionedCall/zeros_3", "shape": [], "dtype": "int32"}, {"name": "PartitionedCall/onnx_tf_prefix_/model.22/dfl/Transpose/perm", "shape": [4], "dtype": "int32"}, {"name": "PartitionedCall/concat_63", "shape": [4], "dtype": "int32"}, {"name": "PartitionedCall/concat_64", "shape": [4], "dtype": "int32"}, {"name": "PartitionedCall/transpose_201/perm", "shape": [4], "dtype": "int32"}, {"name": "PartitionedCall/split_63", "shape": [1, 1, 16, 1], "dtype": "float32"}, {"name": "PartitionedCall/transpose_202/perm", "shape": [4], "dtype": "int32"}, {"name": "unknown_134", "shape": [3], "dtype": "int32"}, {"name": "PartitionedCall/Where_4", "shape": [0, 1], "dtype": "int32"}, {"name": "PartitionedCall/Cast_8", "shape": [1], "dtype": "int32"}, {"name": "PartitionedCall/GatherV2_4", "shape": [0], "dtype": "int32"}, {"name": "PartitionedCall/zeros_4", "shape": [], "dtype": "int32"}, {"name": "PartitionedCall/SelectV2_1", "shape": [1], "dtype": "int32"}, {"name": "PartitionedCall/zeros_5", "shape": [], "dtype": "int32"}, {"name": "PartitionedCall/Const_47", "shape": [], "dtype": "int32"}, {"name": "PartitionedCall/Shape_10", "shape": [3], "dtype": "int32"}, {"name": "PartitionedCall/ExpandDims", "shape": [1, 1], "dtype": "int32"}, {"name": "PartitionedCall/Cast_10", "shape": [1], "dtype": "int32"}, {"name": "PartitionedCall/SelectV2_2", "shape": [1], "dtype": "int32"}, {"name": "PartitionedCall/Const_46", "shape": [], "dtype": "int32"}, {"name": "PartitionedCall/ones", "shape": [3], "dtype": "int32"}, {"name": "PartitionedCall/onnx_tf_prefix_/model.22/Concat_4/axis", "shape": [], "dtype": "int32"}, {"name": "unknown_142", "shape": [1, 3549], "dtype": "float32"}, {"name": "PartitionedCall/Const_24", "shape": [4, 2], "dtype": "int32"}, {"name": "PartitionedCall/transpose_119/perm", "shape": [4], "dtype": "int32"}, {"name": "PartitionedCall/split_36", "shape": [3, 3, 64, 64], "dtype": "float32"}, {"name": "unknown_77", "shape": [64], "dtype": "float32"}, {"name": "PartitionedCall/transpose_120/perm", "shape": [4], "dtype": "int32"}, {"name": "PartitionedCall/Const_26", "shape": [4, 2], "dtype": "int32"}, {"name": "PartitionedCall/transpose_125/perm", "shape": [4], "dtype": "int32"}, {"name": "PartitionedCall/split_38", "shape": [3, 3, 64, 64], "dtype": "float32"}, {"name": "unknown_81", "shape": [64], "dtype": "float32"}, {"name": "PartitionedCall/transpose_126/perm", "shape": [4], "dtype": "int32"}, {"name": "PartitionedCall/transpose_134/perm", "shape": [4], "dtype": "int32"}, {"name": "PartitionedCall/split_41", "shape": [1, 1, 64, 64], "dtype": "float32"}, {"name": "unknown_87", "shape": [64], "dtype": "float32"}, {"name": "PartitionedCall/transpose_135/perm", "shape": [4], "dtype": "int32"}, {"name": "PartitionedCall/Const_25", "shape": [4, 2], "dtype": "int32"}, {"name": "PartitionedCall/transpose_122/perm", "shape": [4], "dtype": "int32"}, {"name": "PartitionedCall/split_37", "shape": [3, 3, 64, 64], "dtype": "float32"}, {"name": "unknown_79", "shape": [64], "dtype": "float32"}, {"name": "PartitionedCall/transpose_123/perm", "shape": [4], "dtype": "int32"}, {"name": "PartitionedCall/Const_27", "shape": [4, 2], "dtype": "int32"}, {"name": "PartitionedCall/transpose_128/perm", "shape": [4], "dtype": "int32"}, {"name": "PartitionedCall/split_39", "shape": [3, 3, 64, 64], "dtype": "float32"}, {"name": "unknown_83", "shape": [64], "dtype": "float32"}, {"name": "PartitionedCall/transpose_129/perm", "shape": [4], "dtype": "int32"}, {"name": "PartitionedCall/transpose_137/perm", "shape": [4], "dtype": "int32"}, {"name": "PartitionedCall/split_42", "shape": [1, 1, 64, 6], "dtype": "float32"}, {"name": "unknown_89", "shape": [6], "dtype": "float32"}, {"name": "PartitionedCall/transpose_138/perm", "shape": [4], "dtype": "int32"}, {"name": "PartitionedCall/onnx_tf_prefix_/model.22/Concat/axis", "shape": [], "dtype": "int32"}, {"name": "PartitionedCall/Where", "shape": [0, 1], "dtype": "int32"}, {"name": "PartitionedCall/Cast_4", "shape": [1], "dtype": "int32"}, {"name": "PartitionedCall/GatherV2", "shape": [0], "dtype": "int32"}, {"name": "PartitionedCall/zeros", "shape": [], "dtype": "int32"}, {"name": "PartitionedCall/Const_32", "shape": [4, 2], "dtype": "int32"}, {"name": "PartitionedCall/transpose_152/perm", "shape": [4], "dtype": "int32"}, {"name": "PartitionedCall/split_47", "shape": [3, 3, 128, 64], "dtype": "float32"}, {"name": "unknown_100", "shape": [64], "dtype": "float32"}, {"name": "PartitionedCall/transpose_153/perm", "shape": [4], "dtype": "int32"}, {"name": "PartitionedCall/Const_34", "shape": [4, 2], "dtype": "int32"}, {"name": "PartitionedCall/transpose_158/perm", "shape": [4], "dtype": "int32"}, {"name": "PartitionedCall/split_49", "shape": [3, 3, 64, 64], "dtype": "float32"}, {"name": "unknown_104", "shape": [64], "dtype": "float32"}, {"name": "PartitionedCall/transpose_159/perm", "shape": [4], "dtype": "int32"}, {"name": "PartitionedCall/transpose_167/perm", "shape": [4], "dtype": "int32"}, {"name": "PartitionedCall/split_52", "shape": [1, 1, 64, 64], "dtype": "float32"}, {"name": "unknown_110", "shape": [64], "dtype": "float32"}, {"name": "PartitionedCall/transpose_168/perm", "shape": [4], "dtype": "int32"}, {"name": "PartitionedCall/Const_33", "shape": [4, 2], "dtype": "int32"}, {"name": "PartitionedCall/transpose_155/perm", "shape": [4], "dtype": "int32"}, {"name": "PartitionedCall/split_48", "shape": [3, 3, 128, 64], "dtype": "float32"}, {"name": "unknown_102", "shape": [64], "dtype": "float32"}, {"name": "PartitionedCall/transpose_156/perm", "shape": [4], "dtype": "int32"}, {"name": "PartitionedCall/Const_35", "shape": [4, 2], "dtype": "int32"}, {"name": "PartitionedCall/transpose_161/perm", "shape": [4], "dtype": "int32"}, {"name": "PartitionedCall/split_50", "shape": [3, 3, 64, 64], "dtype": "float32"}, {"name": "unknown_106", "shape": [64], "dtype": "float32"}, {"name": "PartitionedCall/transpose_162/perm", "shape": [4], "dtype": "int32"}, {"name": "PartitionedCall/transpose_170/perm", "shape": [4], "dtype": "int32"}, {"name": "PartitionedCall/split_53", "shape": [1, 1, 64, 6], "dtype": "float32"}, {"name": "unknown_112", "shape": [6], "dtype": "float32"}, {"name": "PartitionedCall/transpose_171/perm", "shape": [4], "dtype": "int32"}, {"name": "PartitionedCall/onnx_tf_prefix_/model.22/Concat_1/axis", "shape": [], "dtype": "int32"}, {"name": "PartitionedCall/Where_1", "shape": [0, 1], "dtype": "int32"}, {"name": "PartitionedCall/Cast_5", "shape": [1], "dtype": "int32"}, {"name": "PartitionedCall/GatherV2_1", "shape": [0], "dtype": "int32"}, {"name": "PartitionedCall/zeros_1", "shape": [], "dtype": "int32"}, {"name": "PartitionedCall/Const_39", "shape": [4, 2], "dtype": "int32"}, {"name": "PartitionedCall/transpose_182/perm", "shape": [4], "dtype": "int32"}, {"name": "PartitionedCall/split_57", "shape": [3, 3, 256, 64], "dtype": "float32"}, {"name": "unknown_120", "shape": [64], "dtype": "float32"}, {"name": "PartitionedCall/transpose_183/perm", "shape": [4], "dtype": "int32"}, {"name": "PartitionedCall/Const_41", "shape": [4, 2], "dtype": "int32"}, {"name": "PartitionedCall/transpose_188/perm", "shape": [4], "dtype": "int32"}, {"name": "PartitionedCall/split_59", "shape": [3, 3, 64, 64], "dtype": "float32"}, {"name": "unknown_124", "shape": [64], "dtype": "float32"}, {"name": "PartitionedCall/transpose_189/perm", "shape": [4], "dtype": "int32"}, {"name": "PartitionedCall/transpose_194/perm", "shape": [4], "dtype": "int32"}, {"name": "PartitionedCall/split_61", "shape": [1, 1, 64, 64], "dtype": "float32"}, {"name": "unknown_128", "shape": [64], "dtype": "float32"}, {"name": "PartitionedCall/transpose_195/perm", "shape": [4], "dtype": "int32"}, {"name": "PartitionedCall/transpose_101/perm", "shape": [4], "dtype": "int32"}, {"name": "PartitionedCall/Cast_3", "shape": [2], "dtype": "int32"}, {"name": "PartitionedCall/transpose_102/perm", "shape": [4], "dtype": "int32"}, {"name": "PartitionedCall/onnx_tf_prefix_/model.14/Concat/axis", "shape": [], "dtype": "int32"}, {"name": "PartitionedCall/transpose_104/perm", "shape": [4], "dtype": "int32"}, {"name": "PartitionedCall/split_31", "shape": [1, 1, 192, 64], "dtype": "float32"}, {"name": "unknown_67", "shape": [64], "dtype": "float32"}, {"name": "PartitionedCall/transpose_105/perm", "shape": [4], "dtype": "int32"}, {"name": "PartitionedCall/onnx_tf_prefix_/model.15/Split/split_dim", "shape": [], "dtype": "int32"}, {"name": "PartitionedCall/Const_21", "shape": [4, 2], "dtype": "int32"}, {"name": "PartitionedCall/transpose_107/perm", "shape": [4], "dtype": "int32"}, {"name": "PartitionedCall/split_32", "shape": [3, 3, 32, 32], "dtype": "float32"}, {"name": "unknown_69", "shape": [32], "dtype": "float32"}, {"name": "PartitionedCall/transpose_108/perm", "shape": [4], "dtype": "int32"}, {"name": "PartitionedCall/Const_22", "shape": [4, 2], "dtype": "int32"}, {"name": "PartitionedCall/transpose_110/perm", "shape": [4], "dtype": "int32"}, {"name": "PartitionedCall/split_33", "shape": [3, 3, 32, 32], "dtype": "float32"}, {"name": "unknown_71", "shape": [32], "dtype": "float32"}, {"name": "PartitionedCall/transpose_111/perm", "shape": [4], "dtype": "int32"}, {"name": "PartitionedCall/onnx_tf_prefix_/model.15/Concat/axis", "shape": [], "dtype": "int32"}, {"name": "PartitionedCall/transpose_113/perm", "shape": [4], "dtype": "int32"}, {"name": "PartitionedCall/split_34", "shape": [1, 1, 96, 64], "dtype": "float32"}, {"name": "unknown_73", "shape": [64], "dtype": "float32"}, {"name": "PartitionedCall/transpose_114/perm", "shape": [4], "dtype": "int32"}, {"name": "PartitionedCall/Const_23", "shape": [4, 2], "dtype": "int32"}, {"name": "PartitionedCall/transpose_116/perm", "shape": [4], "dtype": "int32"}, {"name": "PartitionedCall/split_35", "shape": [3, 3, 64, 64], "dtype": "float32"}, {"name": "unknown_75", "shape": [64], "dtype": "float32"}, {"name": "PartitionedCall/transpose_117/perm", "shape": [4], "dtype": "int32"}, {"name": "PartitionedCall/transpose_87/perm", "shape": [4], "dtype": "int32"}, {"name": "PartitionedCall/Cast_1", "shape": [2], "dtype": "int32"}, {"name": "PartitionedCall/transpose_88/perm", "shape": [4], "dtype": "int32"}, {"name": "PartitionedCall/onnx_tf_prefix_/model.11/Concat/axis", "shape": [], "dtype": "int32"}, {"name": "PartitionedCall/transpose_90/perm", "shape": [4], "dtype": "int32"}, {"name": "PartitionedCall/split_27", "shape": [1, 1, 384, 128], "dtype": "float32"}, {"name": "unknown_59", "shape": [128], "dtype": "float32"}, {"name": "PartitionedCall/transpose_91/perm", "shape": [4], "dtype": "int32"}, {"name": "PartitionedCall/onnx_tf_prefix_/model.12/Split/split_dim", "shape": [], "dtype": "int32"}, {"name": "PartitionedCall/Const_18", "shape": [4, 2], "dtype": "int32"}, {"name": "PartitionedCall/transpose_93/perm", "shape": [4], "dtype": "int32"}, {"name": "PartitionedCall/split_28", "shape": [3, 3, 64, 64], "dtype": "float32"}, {"name": "unknown_61", "shape": [64], "dtype": "float32"}, {"name": "PartitionedCall/transpose_94/perm", "shape": [4], "dtype": "int32"}, {"name": "PartitionedCall/Const_19", "shape": [4, 2], "dtype": "int32"}, {"name": "PartitionedCall/transpose_96/perm", "shape": [4], "dtype": "int32"}, {"name": "PartitionedCall/split_29", "shape": [3, 3, 64, 64], "dtype": "float32"}, {"name": "unknown_63", "shape": [64], "dtype": "float32"}, {"name": "PartitionedCall/transpose_97/perm", "shape": [4], "dtype": "int32"}, {"name": "PartitionedCall/onnx_tf_prefix_/model.12/Concat/axis", "shape": [], "dtype": "int32"}, {"name": "PartitionedCall/transpose_99/perm", "shape": [4], "dtype": "int32"}, {"name": "PartitionedCall/split_30", "shape": [1, 1, 192, 128], "dtype": "float32"}, {"name": "unknown_65", "shape": [128], "dtype": "float32"}, {"name": "PartitionedCall/transpose_100/perm", "shape": [4], "dtype": "int32"}, {"name": "PartitionedCall/onnx_tf_prefix_/model.17/Concat/axis", "shape": [], "dtype": "int32"}, {"name": "PartitionedCall/transpose_131/perm", "shape": [4], "dtype": "int32"}, {"name": "PartitionedCall/split_40", "shape": [1, 1, 192, 128], "dtype": "float32"}, {"name": "unknown_85", "shape": [128], "dtype": "float32"}, {"name": "PartitionedCall/transpose_132/perm", "shape": [4], "dtype": "int32"}, {"name": "PartitionedCall/onnx_tf_prefix_/model.18/Split/split_dim", "shape": [], "dtype": "int32"}, {"name": "PartitionedCall/Const_28", "shape": [4, 2], "dtype": "int32"}, {"name": "PartitionedCall/transpose_140/perm", "shape": [4], "dtype": "int32"}, {"name": "PartitionedCall/split_43", "shape": [3, 3, 64, 64], "dtype": "float32"}, {"name": "unknown_91", "shape": [64], "dtype": "float32"}, {"name": "PartitionedCall/transpose_141/perm", "shape": [4], "dtype": "int32"}, {"name": "PartitionedCall/Const_30", "shape": [4, 2], "dtype": "int32"}, {"name": "PartitionedCall/transpose_143/perm", "shape": [4], "dtype": "int32"}, {"name": "PartitionedCall/split_44", "shape": [3, 3, 64, 64], "dtype": "float32"}, {"name": "unknown_94", "shape": [64], "dtype": "float32"}, {"name": "PartitionedCall/transpose_144/perm", "shape": [4], "dtype": "int32"}, {"name": "PartitionedCall/onnx_tf_prefix_/model.18/Concat/axis", "shape": [], "dtype": "int32"}, {"name": "PartitionedCall/transpose_146/perm", "shape": [4], "dtype": "int32"}, {"name": "PartitionedCall/split_45", "shape": [1, 1, 192, 128], "dtype": "float32"}, {"name": "unknown_96", "shape": [128], "dtype": "float32"}, {"name": "PartitionedCall/transpose_147/perm", "shape": [4], "dtype": "int32"}, {"name": "PartitionedCall/Const_31", "shape": [4, 2], "dtype": "int32"}, {"name": "PartitionedCall/transpose_149/perm", "shape": [4], "dtype": "int32"}, {"name": "PartitionedCall/split_46", "shape": [3, 3, 128, 128], "dtype": "float32"}, {"name": "unknown_98", "shape": [128], "dtype": "float32"}, {"name": "PartitionedCall/transpose_150/perm", "shape": [4], "dtype": "int32"}, {"name": "PartitionedCall/transpose_79/perm", "shape": [4], "dtype": "int32"}, {"name": "PartitionedCall/transpose_81/perm", "shape": [4], "dtype": "int32"}, {"name": "PartitionedCall/Const", "shape": [4, 2], "dtype": "int32"}, {"name": "PartitionedCall/transpose_1/perm", "shape": [4], "dtype": "int32"}, {"name": "PartitionedCall/split", "shape": [3, 3, 3, 16], "dtype": "float32"}, {"name": "unknown_0", "shape": [16], "dtype": "float32"}, {"name": "PartitionedCall/transpose_2/perm", "shape": [4], "dtype": "int32"}, {"name": "PartitionedCall/Const_1", "shape": [4, 2], "dtype": "int32"}, {"name": "PartitionedCall/transpose_4/perm", "shape": [4], "dtype": "int32"}, {"name": "PartitionedCall/split_1", "shape": [3, 3, 16, 32], "dtype": "float32"}, {"name": "unknown_2", "shape": [32], "dtype": "float32"}, {"name": "PartitionedCall/transpose_5/perm", "shape": [4], "dtype": "int32"}, {"name": "PartitionedCall/transpose_7/perm", "shape": [4], "dtype": "int32"}, {"name": "PartitionedCall/split_2", "shape": [1, 1, 32, 32], "dtype": "float32"}, {"name": "unknown_4", "shape": [32], "dtype": "float32"}, {"name": "PartitionedCall/transpose_8/perm", "shape": [4], "dtype": "int32"}, {"name": "unknown_5", "shape": [2], "dtype": "int32"}, {"name": "PartitionedCall/onnx_tf_prefix_/model.2/Split/split_dim", "shape": [], "dtype": "int32"}, {"name": "PartitionedCall/Const_2", "shape": [4, 2], "dtype": "int32"}, {"name": "PartitionedCall/transpose_10/perm", "shape": [4], "dtype": "int32"}, {"name": "PartitionedCall/split_3", "shape": [3, 3, 16, 16], "dtype": "float32"}, {"name": "unknown_7", "shape": [16], "dtype": "float32"}, {"name": "PartitionedCall/transpose_11/perm", "shape": [4], "dtype": "int32"}, {"name": "PartitionedCall/Const_3", "shape": [4, 2], "dtype": "int32"}, {"name": "PartitionedCall/transpose_13/perm", "shape": [4], "dtype": "int32"}, {"name": "PartitionedCall/split_4", "shape": [3, 3, 16, 16], "dtype": "float32"}, {"name": "unknown_9", "shape": [16], "dtype": "float32"}, {"name": "PartitionedCall/transpose_14/perm", "shape": [4], "dtype": "int32"}, {"name": "PartitionedCall/onnx_tf_prefix_/model.2/Concat/axis", "shape": [], "dtype": "int32"}, {"name": "PartitionedCall/transpose_16/perm", "shape": [4], "dtype": "int32"}, {"name": "PartitionedCall/split_5", "shape": [1, 1, 48, 32], "dtype": "float32"}, {"name": "unknown_11", "shape": [32], "dtype": "float32"}, {"name": "PartitionedCall/transpose_17/perm", "shape": [4], "dtype": "int32"}, {"name": "PartitionedCall/Const_4", "shape": [4, 2], "dtype": "int32"}, {"name": "PartitionedCall/transpose_19/perm", "shape": [4], "dtype": "int32"}, {"name": "PartitionedCall/split_6", "shape": [3, 3, 32, 64], "dtype": "float32"}, {"name": "unknown_13", "shape": [64], "dtype": "float32"}, {"name": "PartitionedCall/transpose_20/perm", "shape": [4], "dtype": "int32"}, {"name": "PartitionedCall/transpose_22/perm", "shape": [4], "dtype": "int32"}, {"name": "PartitionedCall/split_7", "shape": [1, 1, 64, 64], "dtype": "float32"}, {"name": "unknown_15", "shape": [64], "dtype": "float32"}, {"name": "PartitionedCall/transpose_23/perm", "shape": [4], "dtype": "int32"}, {"name": "unknown_16", "shape": [2], "dtype": "int32"}, {"name": "PartitionedCall/onnx_tf_prefix_/model.4/Split/split_dim", "shape": [], "dtype": "int32"}, {"name": "PartitionedCall/Const_5", "shape": [4, 2], "dtype": "int32"}, {"name": "PartitionedCall/transpose_25/perm", "shape": [4], "dtype": "int32"}, {"name": "PartitionedCall/split_8", "shape": [3, 3, 32, 32], "dtype": "float32"}, {"name": "unknown_18", "shape": [32], "dtype": "float32"}, {"name": "PartitionedCall/transpose_26/perm", "shape": [4], "dtype": "int32"}, {"name": "PartitionedCall/Const_6", "shape": [4, 2], "dtype": "int32"}, {"name": "PartitionedCall/transpose_28/perm", "shape": [4], "dtype": "int32"}, {"name": "PartitionedCall/split_9", "shape": [3, 3, 32, 32], "dtype": "float32"}, {"name": "unknown_20", "shape": [32], "dtype": "float32"}, {"name": "PartitionedCall/transpose_29/perm", "shape": [4], "dtype": "int32"}, {"name": "PartitionedCall/Const_7", "shape": [4, 2], "dtype": "int32"}, {"name": "PartitionedCall/transpose_31/perm", "shape": [4], "dtype": "int32"}, {"name": "PartitionedCall/split_10", "shape": [3, 3, 32, 32], "dtype": "float32"}, {"name": "unknown_22", "shape": [32], "dtype": "float32"}, {"name": "PartitionedCall/transpose_32/perm", "shape": [4], "dtype": "int32"}, {"name": "PartitionedCall/Const_8", "shape": [4, 2], "dtype": "int32"}, {"name": "PartitionedCall/transpose_34/perm", "shape": [4], "dtype": "int32"}, {"name": "PartitionedCall/split_11", "shape": [3, 3, 32, 32], "dtype": "float32"}, {"name": "unknown_24", "shape": [32], "dtype": "float32"}, {"name": "PartitionedCall/transpose_35/perm", "shape": [4], "dtype": "int32"}, {"name": "PartitionedCall/onnx_tf_prefix_/model.4/Concat/axis", "shape": [], "dtype": "int32"}, {"name": "PartitionedCall/transpose_37/perm", "shape": [4], "dtype": "int32"}, {"name": "PartitionedCall/split_12", "shape": [1, 1, 128, 64], "dtype": "float32"}, {"name": "unknown_26", "shape": [64], "dtype": "float32"}, {"name": "PartitionedCall/transpose_38/perm", "shape": [4], "dtype": "int32"}, {"name": "PartitionedCall/Const_9", "shape": [4, 2], "dtype": "int32"}, {"name": "PartitionedCall/transpose_40/perm", "shape": [4], "dtype": "int32"}, {"name": "PartitionedCall/split_13", "shape": [3, 3, 64, 128], "dtype": "float32"}, {"name": "unknown_28", "shape": [128], "dtype": "float32"}, {"name": "PartitionedCall/transpose_41/perm", "shape": [4], "dtype": "int32"}, {"name": "PartitionedCall/transpose_43/perm", "shape": [4], "dtype": "int32"}, {"name": "PartitionedCall/split_14", "shape": [1, 1, 128, 128], "dtype": "float32"}, {"name": "unknown_30", "shape": [128], "dtype": "float32"}, {"name": "PartitionedCall/transpose_44/perm", "shape": [4], "dtype": "int32"}, {"name": "unknown_31", "shape": [2], "dtype": "int32"}, {"name": "PartitionedCall/onnx_tf_prefix_/model.6/Split/split_dim", "shape": [], "dtype": "int32"}, {"name": "PartitionedCall/Const_10", "shape": [4, 2], "dtype": "int32"}, {"name": "PartitionedCall/transpose_46/perm", "shape": [4], "dtype": "int32"}, {"name": "PartitionedCall/split_15", "shape": [3, 3, 64, 64], "dtype": "float32"}, {"name": "unknown_33", "shape": [64], "dtype": "float32"}, {"name": "PartitionedCall/transpose_47/perm", "shape": [4], "dtype": "int32"}, {"name": "PartitionedCall/Const_11", "shape": [4, 2], "dtype": "int32"}, {"name": "PartitionedCall/transpose_49/perm", "shape": [4], "dtype": "int32"}, {"name": "PartitionedCall/split_16", "shape": [3, 3, 64, 64], "dtype": "float32"}, {"name": "unknown_35", "shape": [64], "dtype": "float32"}, {"name": "PartitionedCall/transpose_50/perm", "shape": [4], "dtype": "int32"}, {"name": "PartitionedCall/Const_12", "shape": [4, 2], "dtype": "int32"}, {"name": "PartitionedCall/transpose_52/perm", "shape": [4], "dtype": "int32"}, {"name": "PartitionedCall/split_17", "shape": [3, 3, 64, 64], "dtype": "float32"}, {"name": "unknown_37", "shape": [64], "dtype": "float32"}, {"name": "PartitionedCall/transpose_53/perm", "shape": [4], "dtype": "int32"}, {"name": "PartitionedCall/Const_13", "shape": [4, 2], "dtype": "int32"}, {"name": "PartitionedCall/transpose_55/perm", "shape": [4], "dtype": "int32"}, {"name": "PartitionedCall/split_18", "shape": [3, 3, 64, 64], "dtype": "float32"}, {"name": "unknown_39", "shape": [64], "dtype": "float32"}, {"name": "PartitionedCall/transpose_56/perm", "shape": [4], "dtype": "int32"}, {"name": "PartitionedCall/onnx_tf_prefix_/model.6/Concat/axis", "shape": [], "dtype": "int32"}, {"name": "PartitionedCall/transpose_58/perm", "shape": [4], "dtype": "int32"}, {"name": "PartitionedCall/split_19", "shape": [1, 1, 256, 128], "dtype": "float32"}, {"name": "unknown_41", "shape": [128], "dtype": "float32"}, {"name": "PartitionedCall/transpose_59/perm", "shape": [4], "dtype": "int32"}, {"name": "PartitionedCall/Const_14", "shape": [4, 2], "dtype": "int32"}, {"name": "PartitionedCall/transpose_61/perm", "shape": [4], "dtype": "int32"}, {"name": "PartitionedCall/split_20", "shape": [3, 3, 128, 256], "dtype": "float32"}, {"name": "unknown_43", "shape": [256], "dtype": "float32"}, {"name": "PartitionedCall/transpose_62/perm", "shape": [4], "dtype": "int32"}, {"name": "PartitionedCall/transpose_64/perm", "shape": [4], "dtype": "int32"}, {"name": "PartitionedCall/split_21", "shape": [1, 1, 256, 256], "dtype": "float32"}, {"name": "unknown_45", "shape": [256], "dtype": "float32"}, {"name": "PartitionedCall/transpose_65/perm", "shape": [4], "dtype": "int32"}, {"name": "PartitionedCall/onnx_tf_prefix_/model.8/Split/split_dim", "shape": [], "dtype": "int32"}, {"name": "PartitionedCall/Const_15", "shape": [4, 2], "dtype": "int32"}, {"name": "PartitionedCall/transpose_67/perm", "shape": [4], "dtype": "int32"}, {"name": "PartitionedCall/split_22", "shape": [3, 3, 128, 128], "dtype": "float32"}, {"name": "unknown_48", "shape": [128], "dtype": "float32"}, {"name": "PartitionedCall/transpose_68/perm", "shape": [4], "dtype": "int32"}, {"name": "PartitionedCall/Const_16", "shape": [4, 2], "dtype": "int32"}, {"name": "PartitionedCall/transpose_70/perm", "shape": [4], "dtype": "int32"}, {"name": "PartitionedCall/split_23", "shape": [3, 3, 128, 128], "dtype": "float32"}, {"name": "unknown_50", "shape": [128], "dtype": "float32"}, {"name": "PartitionedCall/transpose_71/perm", "shape": [4], "dtype": "int32"}, {"name": "PartitionedCall/onnx_tf_prefix_/model.8/Concat/axis", "shape": [], "dtype": "int32"}, {"name": "PartitionedCall/transpose_73/perm", "shape": [4], "dtype": "int32"}, {"name": "PartitionedCall/split_24", "shape": [1, 1, 384, 256], "dtype": "float32"}, {"name": "unknown_52", "shape": [256], "dtype": "float32"}, {"name": "PartitionedCall/transpose_74/perm", "shape": [4], "dtype": "int32"}, {"name": "PartitionedCall/transpose_76/perm", "shape": [4], "dtype": "int32"}, {"name": "PartitionedCall/split_25", "shape": [1, 1, 256, 128], "dtype": "float32"}, {"name": "unknown_54", "shape": [128], "dtype": "float32"}, {"name": "PartitionedCall/transpose_77/perm", "shape": [4], "dtype": "int32"}, {"name": "PartitionedCall/transpose_78/perm", "shape": [4], "dtype": "int32"}, {"name": "PartitionedCall/transpose_83/perm", "shape": [4], "dtype": "int32"}, {"name": "PartitionedCall/onnx_tf_prefix_/model.9/Concat/axis", "shape": [], "dtype": "int32"}, {"name": "PartitionedCall/transpose_85/perm", "shape": [4], "dtype": "int32"}, {"name": "PartitionedCall/split_26", "shape": [1, 1, 512, 256], "dtype": "float32"}, {"name": "unknown_56", "shape": [256], "dtype": "float32"}, {"name": "PartitionedCall/transpose_86/perm", "shape": [4], "dtype": "int32"}, {"name": "PartitionedCall/onnx_tf_prefix_/model.20/Concat/axis", "shape": [], "dtype": "int32"}, {"name": "PartitionedCall/transpose_164/perm", "shape": [4], "dtype": "int32"}, {"name": "PartitionedCall/split_51", "shape": [1, 1, 384, 256], "dtype": "float32"}, {"name": "unknown_108", "shape": [256], "dtype": "float32"}, {"name": "PartitionedCall/transpose_165/perm", "shape": [4], "dtype": "int32"}, {"name": "unknown_46", "shape": [2], "dtype": "int32"}, {"name": "PartitionedCall/onnx_tf_prefix_/model.21/Split/split_dim", "shape": [], "dtype": "int32"}, {"name": "PartitionedCall/Const_36", "shape": [4, 2], "dtype": "int32"}, {"name": "PartitionedCall/transpose_173/perm", "shape": [4], "dtype": "int32"}, {"name": "PartitionedCall/split_54", "shape": [3, 3, 128, 128], "dtype": "float32"}, {"name": "unknown_114", "shape": [128], "dtype": "float32"}, {"name": "PartitionedCall/transpose_174/perm", "shape": [4], "dtype": "int32"}, {"name": "PartitionedCall/Const_38", "shape": [4, 2], "dtype": "int32"}, {"name": "PartitionedCall/transpose_176/perm", "shape": [4], "dtype": "int32"}, {"name": "PartitionedCall/split_55", "shape": [3, 3, 128, 128], "dtype": "float32"}, {"name": "unknown_116", "shape": [128], "dtype": "float32"}, {"name": "PartitionedCall/transpose_177/perm", "shape": [4], "dtype": "int32"}, {"name": "PartitionedCall/onnx_tf_prefix_/model.21/Concat/axis", "shape": [], "dtype": "int32"}, {"name": "PartitionedCall/transpose_179/perm", "shape": [4], "dtype": "int32"}, {"name": "PartitionedCall/split_56", "shape": [1, 1, 384, 256], "dtype": "float32"}, {"name": "unknown_118", "shape": [256], "dtype": "float32"}, {"name": "PartitionedCall/transpose_180/perm", "shape": [4], "dtype": "int32"}, {"name": "PartitionedCall/Const_40", "shape": [4, 2], "dtype": "int32"}, {"name": "PartitionedCall/transpose_185/perm", "shape": [4], "dtype": "int32"}, {"name": "PartitionedCall/split_58", "shape": [3, 3, 256, 64], "dtype": "float32"}, {"name": "unknown_122", "shape": [64], "dtype": "float32"}, {"name": "PartitionedCall/transpose_186/perm", "shape": [4], "dtype": "int32"}, {"name": "PartitionedCall/Const_42", "shape": [4, 2], "dtype": "int32"}, {"name": "PartitionedCall/transpose_191/perm", "shape": [4], "dtype": "int32"}, {"name": "PartitionedCall/split_60", "shape": [3, 3, 64, 64], "dtype": "float32"}, {"name": "unknown_126", "shape": [64], "dtype": "float32"}, {"name": "PartitionedCall/transpose_192/perm", "shape": [4], "dtype": "int32"}, {"name": "PartitionedCall/transpose_197/perm", "shape": [4], "dtype": "int32"}, {"name": "PartitionedCall/split_62", "shape": [1, 1, 64, 6], "dtype": "float32"}, {"name": "unknown_130", "shape": [6], "dtype": "float32"}, {"name": "PartitionedCall/transpose_198/perm", "shape": [4], "dtype": "int32"}, {"name": "PartitionedCall/onnx_tf_prefix_/model.22/Concat_2/axis", "shape": [], "dtype": "int32"}, {"name": "unknown_92", "shape": [3], "dtype": "int32"}, {"name": "PartitionedCall/Where_2", "shape": [0, 1], "dtype": "int32"}, {"name": "PartitionedCall/Cast_6", "shape": [1], "dtype": "int32"}, {"name": "PartitionedCall/GatherV2_2", "shape": [0], "dtype": "int32"}, {"name": "PartitionedCall/zeros_2", "shape": [], "dtype": "int32"}, {"name": "PartitionedCall/onnx_tf_prefix_/model.22/Concat_3/axis", "shape": [], "dtype": "int32"}, {"name": "unknown_131", "shape": [2], "dtype": "int32"}, {"name": "PartitionedCall/onnx_tf_prefix_/model.22/Split/split_dim", "shape": [], "dtype": "int32"}, {"name": "PartitionedCall/onnx_tf_prefix_/model.22/Concat_5/axis", "shape": [], "dtype": "int32"}]}]}